darnn3++/models/decoder.pth (torch_old, 120902 bytes, 9 tensors)

attn_layer.0.weight f4 [64, 192]
000000 8d db f3 3d c9 86 7c 3d 98 b7 cd 3d ac 4f 90 3b
       0.1190711 0.06165198 0.10044783 0.004404029
000010 ea d6 66 3d eb a6 0e 3d 12 8c 29 bd 04 bd c7 bc
       0.0563573 0.034827154 -0.041393347 -0.024382122
000020 c6 3f 96 bc 2d b4 8d bc 56 66 4d 3d 90 19 01 be
       -0.018340956 -0.017297829 0.050146423 -0.12607408
000030 7c 1d 0d bd 7e 89 1e be cd 90 cd 3d fd 48 4e bd
       -0.034451947 -0.15482137 0.10037384 -0.050362576
000040 f2 d4 05 bd 8d dd 09 3d b5 79 95 bd 46 23 dd 3d
       -0.032673784 0.033658553 -0.072986044 0.107977435
000050 f0 58 99 3c dd 10 bb 3c a3 9d a5 3a 0c cc 0c be
       0.018719167 0.02283519 0.001263548 -0.13749713
000060 4b 72 00 bd dc 3e f2 bc f7 9e d2 bd 25 7f 48 3d
       -0.031359 -0.02957099 -0.102842264 0.04894938
000070 d2 3e 51 bd 67 63 c5 3d 57 ad 9e 3b 5f 70 81 3d
       -0.0510853 0.096381 0.004842441 0.06320261
000080 e8 51 09 3e 3b 30 2e 3c cd 55 1b bb 04 07 c6 3c
       0.13410151 0.010631616 -0.0023702264 0.024173267
000090 a2 49 09 3c 21 3c b0 3c 3c 8b 47 bb 4c be 08 3e
       0.008379372 0.021513047 -0.003044798 0.13353842
0000a0 21 c5 10 bd 15 78 2e bd 5d 52 b7 3d ca 7f 13 3d
       -0.035344247 -0.042594988 0.089512564 0.03601054
0000b0 c5 46 b3 3d a8 3f 3b bc 6a af 90 3b 32 91 4f 3b
       0.087537326 -0.011428751 0.0044154422 0.0031672237
0000c0 a6 5a be bc 2c e7 10 3d 92 7d 94 3c a2 0f 35 bd
       -0.023236584 0.035376713 0.018126283 -0.04420436
0000d0 4b 52 53 3c 30 65 72 3b 30 a0 d4 bc f9 e6 45 3c
       0.012898038 0.0036986582 -0.02595529 0.012078994
0000e0 ad 94 02 be 12 18 64 bd 12 a9 f6 3b ca 37 4e 3d
       -0.12752028 -0.055687018 0.007527479 0.050346173
0000f0 80 b1 66 3d 61 ad c2 bb 1c 9b 81 3c 52 ea ab 3c
       0.05632162 -0.0059410785 0.015821032 0.020985756
000100 07 a5 da 3d 86 fd 4e 3c e3 93 36 3d bc e9 53 3b
       0.10676008 0.012633687 0.04457463 0.0032335361
000110 c9 f2 60 3d c0 17 de 3d e1 0b 25 bd eb de 74 3c
       0.054919038 0.10844374 -0.04029453 0.014945726
000120 90 c6 77 bd 7f c4 55 bd 6c 71 b7 bc 7b 53 9a bd
       -0.0604921 -0.052189346 -0.022392951 -0.07535454
000130 7a e1 34 bc 49 34 81 bd be c1 20 3b 80 c9 1f bd
       -0.011040086 -0.06308801 0.0024529542 -0.039010525
000140 06 1d aa bd d7 87 04 3c 59 94 12 bd f6 91 98 3d
       -0.08306317 0.008089027 -0.035786007 0.07449715
000150 67 6b c0 bd 66 0a 6f bc 55 c3 be bd d3 61 cd bd
       -0.09395485 -0.0145898815 -0.093146004 -0.10028424
000160 f3 ba c5 bd a2 49 90 bd cf 0d 4b bd da 7e fb 3d
       -0.09654798 -0.07045294 -0.049573716 0.122800544
000170 41 0f 46 bd d3 14 cd 3d cc d3 2f 3d d2 2d c3 bb
       -0.04835439 0.100137375 0.042926595 -0.00595639
000180 56 3c af 3d 93 c9 17 3c c2 92 10 bd 19 85 9b 3d
       0.0855643 0.009264368 -0.03529621 0.07593746
000190 a1 4a c7 bd 53 82 17 3d 16 47 68 bd 07 e9 01 3e
       -0.09731031 0.03698952 -0.056708418 0.12686549
0001a0 3b ce 66 bc 8b 02 89 bd da 3c 80 bd 72 c2 40 3c
       -0.014087255 -0.06689938 -0.062616065 0.011765109
0001b0 cb c3 da 3d 4e de 87 3c db c5 01 bd 21 ae e1 3c
       0.10681876 0.016585495 -0.03168283 0.027548851
0001c0 93 ed 87 3c 65 35 bc bd 95 72 77 bd de 62 df 3c
       0.016592776 -0.09189872 -0.06041201 0.027268823
0001d0 4a b6 4b bc ae 6a 3f 3d 00 1f 8f 3d 4a 17 51 3d
       -0.012433598 0.046732597 0.06988335 0.0510476
0001e0 cc 4f 76 bd eb 25 64 bc 24 49 7c bd ee f4 b5 bc
       -0.060134694 -0.013925056 -0.06159319 -0.022211518
0001f0 be 62 83 3d 2f a5 bd 3c a4 7e 2b bd 14 49 05 3d
       0.06415318 0.023150055 -0.04186882 0.032540396
000200 e4 63 89 3c fc 48 13 be 17 ac 2a 3e 86 7e b7 3e
       0.016771264 -0.1438331 0.1666721 0.35838717
000210 dc 85 60 be 7f 39 4e be b3 45 b3 bd 94 2b 8f be
       -0.21926063 -0.2013912 -0.087535284 -0.27962935
000220 2f b2 32 be c4 47 25 bd 21 37 38 be bc 11 6c 3e
       -0.17450784 -0.040351644 -0.1798978 0.2305364
000230 a2 4d 6a bd e5 a8 14 be b7 5f 72 be 0e d7 75 3e
       -0.057202943 -0.14517553 -0.23669325 0.24007818
000240 fe 3d b8 bb fb 0d 15 3b c4 77 d3 bc f9 b0 54 bd
       -0.0056226244 0.0022743929 -0.025813945 -0.051926587
000250 c0 7a a7 be 39 91 86 3d 82 2e 8a 3e 51 43 88 3e
       -0.32710838 0.06570668 0.26988608 0.26613858
000260 3f 8b aa bd f9 c2 91 3e 61 92 ae bd f1 98 07 bd
       -0.0832734 0.28469065 -0.08524013 -0.03310484
000270 05 23 68 3e 3f 45 0f be a8 03 40 3e 2b ed d3 be
       0.22669609 -0.13991259 0.18751395 -0.41391882
000280 f0 83 8b be 64 9c 18 3e 0d cf bb 3e 07 53 ca be
       -0.27249098 0.14903408 0.36681405 -0.3951647
000290 eb c1 49 be 8f d2 a6 bd 70 c3 13 be 23 9e 4f 3d
       -0.1970288 -0.081456296 -0.14430022 0.05068792
0002a0 c4 79 89 be 32 fb 98 bd 6d a0 6b be 75 84 14 be
       -0.26850712 -0.07469787 -0.23010416 -0.14503653
0002b0 98 a0 94 3d 37 7e 6e 3e 34 0b fd 3d 0e 24 31 bd
       0.07257193 0.23290335 0.123556525 -0.043247275
0002c0 f5 5e cb bd f6 51 96 3e 70 99 80 be 6a f7 6a 3e
       -0.09930221 0.29359406 -0.25117064 0.22945943
0002d0 fa b9 a0 3e 53 42 0e 3e d5 6a 6f be f7 3b 56 3e
       0.3139189 0.13892488 -0.23380597 0.20921312
0002e0 23 e5 b1 3e 89 7d cb 3e 02 a8 91 be bc de dc be
       0.3474513 0.39744213 -0.28448492 -0.43138683
0002f0 33 e6 b5 be 5b bf 7a be f7 37 8a 3e 1b 4c c8 3e
       -0.3552719 -0.24487059 0.26995823 0.39120564
000300 79 31 81 bd a8 c0 ac bc 15 44 ab 3c b8 2a 80 bc
       -0.06308264 -0.02108796 0.020906487 -0.01564537
000310 b5 5d 8d 3d 97 2b 84 bc c4 a9 8d bb 14 b1 8f 3d
       0.06902639 -0.016134067 -0.004323216 0.07016197
000320 2b 33 cb bd 62 83 59 3d 8d 43 d5 bd 96 9f d0 bc
       -0.09921869 0.053103812 -0.10413275 -0.025466722
000330 95 5d c0 3b 40 47 9b bd 8a c7 01 3c a2 44 a0 3b
       0.005870531 -0.07581949 0.007921109 0.004890994
000340 df 0f 87 bd 79 0d 5b bd 8e 64 a3 bd c1 41 66 bc
       -0.06594824 -0.053479645 -0.07978164 -0.014053763
000350 88 dd 38 3d 41 af c8 3c 5c 83 88 3c c7 3c 12 3d
       0.045133144 0.02449763 0.0166642 0.035702493
000360 6f a5 0a 3d 20 16 1f bb 30 c2 a5 bc 8f c2 05 bd
       0.033849176 -0.0024274662 -0.020234197 -0.03265625
000370 2e 55 53 bd f6 3a 99 3d a0 fe 46 bb 65 b9 7a 3c
       -0.051594906 0.07481949 -0.003036417 0.015302991
000380 ea dc 95 bd 12 a1 3e 3d 72 96 85 bd 2d df 4e 3d
       -0.07317527 0.046540327 -0.06522836 0.050505806
000390 46 f7 86 bd a2 f7 2a 3d fc 6b cc bc aa 09 20 3d
       -0.065901324 0.041740067 -0.024953835 0.039071716
0003a0 d5 c9 56 3d 5d 27 97 3d 81 84 f9 3c 3c 13 eb bb
       0.052438576 0.07380555 0.03045869 -0.007173924
0003b0 c8 3b 5e 3d db 8a 61 bc e1 bf dd 3d 7c 08 ac bb
       0.05425623 -0.013766016 0.108276136 -0.005250035
0003c0 f2 98 71 3d 87 29 21 3b 22 7d 0e 3c 6e e1 58 bd
       0.05898375 0.0024591403 0.008696826 -0.05294936
0003d0 f7 ad 18 bd 32 df 76 ba 65 96 ad bc 4f 0e 3d 3d
       -0.03727528 -0.0009417414 -0.021189878 0.046156224
0003e0 6c 55 39 3d ab a6 2a bd cc 2d 2b 3d e3 cd 0a bd
       0.04524748 -0.041662853 0.041791722 -0.033887755
0003f0 0a 86 61 3d 64 01 78 3d 21 e4 12 bd 7e 89 15 3d
       0.05505947 0.0605482 -0.035862092 0.036508076

attn_layer.0.bias f4 [64]
000000 7d 28 51 3d d6 ca a0 3d 94 ae 41 3d c4 43 5c 3c
       0.051064003 0.07851188 0.04728563 0.013443891
000010 25 8d bb bc 93 1f e8 bc 0b d2 a3 3d b0 31 49 bd
       -0.022894451 -0.028335368 0.07999047 -0.04911965
000020 bb 2c 81 bc f0 51 65 3d d5 7e a2 bc 92 3f 54 bd
       -0.0157684 0.055986345 -0.019835869 -0.051818438
000030 62 47 11 3d 79 62 3a 3d bb a0 8a bd 61 45 bc bc
       0.035468467 0.045504067 -0.06768938 -0.022982301
000040 e3 46 75 bd fd b4 71 3d 24 cf ca bc cd 00 46 bd
       -0.059882056 0.059010495 -0.024756975 -0.048340607
000050 70 00 cd bd 94 33 e6 bc 8b 34 82 bd f3 a1 20 bd
       -0.10009849 -0.028100766 -0.06357678 -0.039216947
000060 ec 69 9e 3c 3f cd 41 3c 7f 8f 0d 3c c6 46 32 bd
       0.019337617 0.01182872 0.008640169 -0.043524526
000070 28 23 82 bd fe 15 8d bc b6 93 8f 3b dc 89 ce bc
       -0.06354362 -0.0172224 0.004381622 -0.02521222
000080 38 e7 3c 3b 91 8b b8 3c cd c7 10 3d bf 0d 1a 3d
       0.002882434 0.022527488 0.035346795 0.037610766
000090 fb 88 dc 3c cc cb a5 bd 68 28 06 3d b1 b5 85 3d
       0.026920786 -0.08095512 0.03275338 0.065287955
0000a0 9c 5e 53 bc 2a e1 f4 bc ee 21 c8 3b 1f 24 01 3d
       -0.012900975 -0.029892523 0.0061075604 0.03152859
0000b0 46 db f7 bc bc 17 bd bd 1b 61 c3 bc 57 d0 9e 3c
       -0.030255925 -0.092330426 -0.023850014 0.019386454
0000c0 27 74 8e bc c4 b8 73 bd e1 2f 91 bd 5c 93 cd 3d
       -0.01738937 -0.059502378 -0.0708921 0.10037872
0000d0 03 4b 0b bd b6 5d e8 3c fd e1 99 bc 55 13 b8 bc
       -0.034007084 0.028364997 -0.018784517 -0.022470156
0000e0 37 18 8e bd 5f dd 8e bb 45 a3 59 3d e1 3e bf 3b
       -0.06938212 -0.0043598856 0.05313422 0.005836353
0000f0 24 29 b5 3c 59 41 20 bd 1c 10 6c 3c 4b 46 5f bd
       0.022114344 -0.03912482 0.014408138 -0.054510396

attn_layer.2.weight f4 [1, 64]
000000 d6 e2 fe be 75 11 ef 3e 9a 8d eb 3e cf e7 dd be
       -0.49782437 0.46693006 0.4600647 -0.43340918
000010 d6 79 f9 be ec 06 fd be 03 22 ff 3e f3 08 e4 be
       -0.48725766 -0.49419343 0.49830636 -0.44538078
000020 3a 35 eb 3e 05 5c e8 be 4b a1 fe be 91 5b e5 3e
       0.45939046 -0.45382705 -0.49732432 0.44796422
000030 cb 9a ef 3e ec ca 08 bf 92 d7 f4 3e ca 50 ec be
       0.46797785 -0.53434634 0.47820717 -0.46155387
000040 82 1c 00 3f b0 87 e3 3e c8 f7 e9 3e 56 ed 05 3f
       0.500435 0.4443946 0.45696855 0.5231527
000050 70 c9 ea be 2e e4 e1 be 51 7a fb 3e 80 c6 00 bf
       -0.4585681 -0.441194 0.49116758 -0.50302887
000060 94 a9 f5 be 47 4a eb 3e f1 63 f2 be 71 55 02 3f
       -0.4798094 0.45955107 -0.47341874 0.50911623
000070 e1 4e f5 be b2 e9 de be cc 26 ef be f8 f7 e7 3e
       -0.47911742 -0.4353767 -0.46709287 0.45306373
000080 a0 fa 03 bf fd 6e db be 10 ac ff be ea 5a dd be
       -0.515543 -0.42858115 -0.4993596 -0.43233424
000090 0b f4 f7 be c5 b1 f8 3e 69 6c fe 3e 0d b6 f5 3e
       -0.48428378 0.48573127 0.49692085 0.47990456
0000a0 a3 5c e2 3e 10 22 f5 be 5a ca e9 3e 6c 78 02 3f
       0.442113 -0.4787755 0.45662194 0.50965
0000b0 24 e8 ea 3e a7 2f f9 be 29 07 f1 3e e2 99 cc 3e
       0.45880234 -0.48669168 0.47075775 0.39961153
0000c0 98 72 ea 3e 19 a0 fe 3e 73 7e ef be 11 ee ec 3e
       0.45790553 0.4973152 -0.4677616 0.4627538
0000d0 f9 6f f1 3e f1 f1 02 3f 2b e9 d3 be 1b 87 00 3f
       0.4715574 0.51150423 -0.4138883 0.50206155
0000e0 f0 67 e5 3e 56 57 e5 be e8 f6 f2 3e 7c 00 03 bf
       0.4480586 -0.44793195 0.47454 -0.51172614
0000f0 89 9d de 3e 79 50 01 bf d1 c4 01 bf 7c 59 ea be
       0.43479565 -0.50513417 -0.50690943 -0.45771396

lstm_layer.weight_ih_l0 f4 [256, 1]
000000 b8 70 10 3e 36 9f 11 3e 8b 96 7c bd c2 3b 80 3d
       0.14105499 0.1422089 -0.061667006 0.06261398
000010 ec 46 7c 3e 32 71 dd bd ea c2 eb 3d 5f 23 9d be
       0.2463643 -0.10812606 0.11511786 -0.30691049
000020 8a 39 16 3c 70 33 aa 3d 48 bc b1 3d 1c 87 e3 be
       0.009168992 0.08310592 0.0867849 -0.44439018
000030 32 8a 7a 3d 24 a0 59 be 77 5a cf 3d 8d 91 92 bd
       0.06116695 -0.21252495 0.10124677 -0.07156668
000040 a9 ac b3 3d 88 c5 19 3e 26 62 37 be 46 31 35 be
       0.08773167 0.15016758 -0.17908534 -0.17694578
000050 76 5d c5 3d aa 9b 38 be 5a 26 66 be 2d 13 06 3e
       0.09636967 -0.18028131 -0.22475567 0.13093252
000060 04 8b 2f 3e 6f 65 57 3e cd 6b 1c bc 4f b5 80 3d
       0.17142874 0.21034788 -0.009547186 0.06284582
000070 7f 0b 90 3d f0 68 a0 bd c5 c3 6d 3e 88 98 00 bd
       0.07033443 -0.07832515 0.23219211 -0.031395465
000080 de bd 94 be 7e 28 7e 3c 7b 59 26 3e 04 36 3b bc
       -0.29051107 0.015512584 0.16245072 -0.011426453
000090 6d 0d 24 3e 28 05 a5 3d 62 e5 ad 3d 9e 1a 0c 3e
       0.16020747 0.08057624 0.08491017 0.13682029
0000a0 18 01 03 3e 12 1c 69 3c 18 d0 c3 3a ce 8c 65 bd
       0.12793386 0.014227884 0.0014939336 -0.056042485
0000b0 ad 99 b3 3d d7 ef 9d 3e e0 d3 56 3d 5b a0 8a be
       0.08769546 0.30847046 0.052448153 -0.27075467
0000c0 b5 fc 68 bc 5a 13 55 3d 24 b3 88 be 2a d2 1a 3e
       -0.014220406 0.05202041 -0.26699173 0.15119234
0000d0 07 81 e9 3d 11 1e fb 3d 16 75 8b bc 97 41 3d be
       0.11401563 0.12261594 -0.017023604 -0.18482052
0000e0 a1 d3 39 bd 38 63 86 3d fc 75 5f 3e 6c 65 4b 3d
       -0.04536784 0.06561893 0.21822351 0.04965727
0000f0 ea 80 d4 bd e7 d0 86 3d 9e f1 9c 3d 83 4e 32 3e
       -0.10376151 0.06582814 0.07663272 0.17412762
000100 c3 14 10 3e c9 26 fc bb a0 af 8c 3d 20 91 28 bd
       0.1407042 -0.0076950532 0.06869435 -0.041154027
000110 77 27 8c 3e 9e 48 04 be 7d 5b 85 3d 7a a0 c1 be
       0.2737386 -0.12918326 0.06511591 -0.37817746
000120 f9 fb d7 bd fa 5d 29 3e 2c 02 4a 3d 57 53 07 bf
       -0.10546107 0.16539755 0.049318478 -0.5286154
000130 59 29 6c 3d a3 95 6d be ae ea 18 3e 79 e7 8c bd
       0.05765662 -0.23201613 0.14933273 -0.068800874
000140 4a 7e de 3d f8 d4 18 3e 29 5e ac bd f5 89 9c be
       0.108639315 0.14924991 -0.08416397 -0.30574003
000150 e3 15 93 3d 9f e0 0b be cb fe be be 71 6c c8 3c
       0.07181909 -0.13659905 -0.37303767 0.024465771
000160 ef 60 3f 3e e6 18 fd 3d d9 de 1e 3d 70 c4 30 3e
       0.18689321 0.123582646 0.038786743 0.17262435
000170 e8 e0 41 3e 43 61 e4 bd 3d 27 8f 3e 35 3e dc bd
       0.18933451 -0.11151364 0.27959624 -0.107540525
000180 40 cd e5 be ce 53 d2 3d b0 85 4a 3e e0 aa 67 3d
       -0.44883156 0.10269891 0.1977756 0.056559443
000190 b8 92 22 3e f4 a3 7e 3d a3 a4 48 bd df 68 c1 3d
       0.15876281 0.062168077 -0.048985135 0.09443831
0001a0 08 08 37 3e db 5e c3 3b 12 8b 94 3d 19 b9 ad bd
       0.17874157 0.0059622354 0.07253088 -0.0848257
0001b0 75 e4 d2 3d 87 ee d9 3e b9 5b 63 3d 0e 55 96 be
       0.10297481 0.42564794 0.055507395 -0.29361767
0001c0 78 6b 23 3e f5 b0 58 3e ee bc 4f be f7 45 2e 3e
       0.15958965 0.21161254 -0.20286915 0.17018877
0001d0 7b aa 15 3c 8c f1 f7 3d 3d bf 2c bd ec b2 97 be
       0.009134884 0.12106618 -0.042174567 -0.29628694
0001e0 e7 9a 2b bd 89 2f 07 3e 30 da 2c 3e 11 85 3c 3e
       -0.041895773 0.13201727 0.16880107 0.18410136
0001f0 de 3f 10 bd f5 62 d6 3c 92 90 0d 3e 92 09 f5 3c
       -0.03521716 0.026170233 0.1382468 0.02991179
000200 8b b2 82 be 5e c3 6c be fb 90 9a be b9 df 6a 3e
       -0.25526842 -0.23121402 -0.30188736 0.22936906
000210 55 7b ba 3e 9c 77 8d be 78 74 21 3e e9 d0 5a be
       0.3642222 -0.27630317 0.15767086 -0.21368755
000220 3d d3 54 3e 8a 8c 7d 3e 1e 21 81 be 4b e9 6c be
       0.20783706 0.24760643 -0.2522058 -0.23135869
000230 dc f7 a1 be f4 70 63 3d 9d 14 59 be 0b 63 55 be
       -0.31634414 0.055527642 -0.2119927 -0.20838563
000240 86 55 94 3e 13 dc 37 be 41 02 76 3e 0e a1 07 3e
       0.289715 -0.17955045 0.24024297 0.13245031
000250 ff 8c 6b 3e fe 52 a3 be 91 3b 53 be 55 0d ae 3e
       0.23003004 -0.31899256 -0.20628192 0.33994547
000260 3d 45 7b 3e cc f0 32 3e a8 a9 f0 3c da 1d 68 be
       0.24538131 0.17474669 0.029377773 -0.22667637
000270 66 55 93 3e 31 6a 63 be ae aa ea 3e 6d c4 39 3e
       0.2877609 -0.22208478 0.45833343 0.18141337
000280 43 6d 5b 3e 78 43 5b be 8e 75 35 be eb 93 e7 bd
       0.21428399 -0.21412456 -0.17720625 -0.1130751
000290 6c a4 62 3e 2d 4b 36 be a5 ff 5a 3e af 38 12 3f
       0.22133034 -0.17802115 0.21386583 0.5711774
0002a0 2a dc 97 3e 57 7d ae 3e 31 29 c3 bd bc aa 49 3e
       0.2966016 0.34080002 -0.09529341 0.19694036
0002b0 0e ee 8c be 4b cd 9a bd 10 c4 18 be 8c 64 a0 be
       -0.2752537 -0.07558688 -0.14918542 -0.3132671
0002c0 cc 16 dc bd dc 06 ed 3d 01 71 ca 3e 66 c6 c1 3e
       -0.10746536 0.11573574 0.3953934 0.37846678
0002d0 bc 4f 65 be 2c 34 12 3e 9c 1c 60 3e cd e6 bd be
       -0.22393698 0.14277714 0.21885914 -0.3709015
0002e0 a4 64 99 3d 7e ae 79 be 51 9f eb be 50 76 8d be
       0.07489899 -0.2438297 -0.46019986 -0.27629328
0002f0 87 43 22 be 56 d5 86 3e b4 b9 50 3e c2 24 dd 3d
       -0.15846072 0.26334637 0.2038334 0.107980266
000300 b2 38 6c 3e 43 0f 3a 3d 23 cd be bd c6 1a 18 be
       0.23068503 0.04542471 -0.093164705 -0.14853963
000310 3c 1a e6 3e f6 f0 9b bd 03 1e 7a 3e a1 3b 2a bf
       0.4494189 -0.07614319 0.24425511 -0.66497236
000320 ef d9 0a 3d 92 d9 c6 3d 5d 55 35 3e 6e 18 45 bf
       0.033899244 0.09709467 0.17708345 -0.769904
000330 04 27 f5 ba 75 de 3a bd 0e d5 89 3d 3b f6 ac bd
       -0.0018703644 -0.045622308 0.0673009 -0.08445402
000340 c2 bf 81 3c e1 a4 72 3e 2a 04 84 bd 4c 74 be be
       0.015838508 0.23695709 -0.06446107 -0.37198102
000350 64 a1 29 3e 3e c2 f7 bd 07 2a a5 be cd 7a 85 3d
       0.16565472 -0.12097596 -0.32258627 0.06517563
000360 e2 0f 88 3e e9 03 46 3e e5 a5 58 be b1 6d 17 3e
       0.26574618 0.19337429 -0.21157034 0.14787938
000370 74 05 d0 3d 7d 57 8f bd ec 60 17 3e 18 f6 08 bd
       0.1015729 -0.06999109 0.14783067 -0.03343782
000380 bb 3c 1d bf fb 11 db 3d dc 58 80 3e 9c f8 d2 3c
       -0.6142079 0.10696789 0.25067794 0.025753312
000390 fa 35 70 3e 42 5c 88 3d ea fd 04 3e 7a bc 49 3e
       0.2345809 0.06658222 0.12987486 0.19700804
0003a0 16 8b 50 3e 29 3f 88 3d 3f 72 aa 3d 62 84 0b bd
       0.20365557 0.06652672 0.08322572 -0.034061797
0003b0 34 f9 3f bd 4b 7d 15 3f 70 5c ec 3a a6 10 21 bf
       -0.046868518 0.58394307 0.001803292 -0.6291603
0003c0 97 58 70 3e 83 61 44 3e 1b 07 00 bf 9f 87 8c 3e
       0.23471294 0.19177823 -0.5001084 0.2744722
0003d0 7d 96 f0 3d fc ca 96 3e a2 f6 c5 3d 7b 02 f9 be
       0.11747453 0.2945174 0.09666182 -0.48634705
0003e0 9c 9c 80 3c 0e 91 ca 3d 73 6f 96 3e 40 0a 6a 3e
       0.015699677 0.09890948 0.29381904 0.22855473
0003f0 8e 62 f2 bd 1a 9f 88 3d d9 ee 64 3e 53 1f 59 3e
       -0.11835204 0.06670971 0.22356738 0.21203355

lstm_layer.weight_hh_l0 f4 [256, 64]
000000 42 e5 5e bd 34 1e 5d 3c be 38 1e bd 7e 9e 91 bc
       -0.054417856 0.0134959705 -0.038628332 -0.01777577
000010 72 f6 c3 ba 78 d4 2f 3c af 10 79 3c ea 14 95 3e
       -0.0014950766 0.010731809 0.015201732 0.2911752
000020 6b 23 ba 3d ea 6e b0 ba 3f ad c9 bb 38 b3 81 3d
       0.09088787 -0.0013460789 -0.0061546857 0.063330114
000030 12 d6 02 3d 7a 1b 6a 3d cc 7d f0 bd eb cb 17 3e
       0.031942435 0.05715511 -0.11742744 0.14823882
000040 03 a9 aa 3d d1 d4 bf bd e6 18 dc bd 4c d2 7d bd
       0.08333018 -0.093667634 -0.107469365 -0.061968133
000050 76 dc 0d be 22 af 3f 3e 2c 4c 00 3e 49 f8 2b 3c
       -0.1385363 0.18719152 0.12529057 0.0104962075
000060 20 d4 b1 bd 5f 52 dc bc 2b 8b d7 3b 40 4a f3 bc
       -0.08683038 -0.026894746 0.0065778694 -0.029698491
000070 0e 59 d0 3d 0e 20 c9 3d c3 e5 55 bd 91 d5 2b bc
       0.10173236 0.09820567 -0.05222107 -0.01048793
000080 d1 85 85 be 7e 71 b2 bc d7 1f ae bd 97 c3 ce bc
       -0.26078656 -0.021782633 -0.08502167 -0.025239749
000090 c8 63 d8 3d cf 19 77 3d 6a 67 0e be a8 40 a3 bd
       0.10565907 0.060327347 -0.13906637 -0.079713166
0000a0 65 8d c5 bd 87 8e 83 3c 70 9c fb 3c 44 39 37 be
       -0.096461095 0.016059173 0.030714244 -0.17892939
0000b0 13 59 e3 3d 22 71 d5 bd 65 20 08 3d 25 de 0a 3e
       0.11100974 -0.10421969 0.03323402 0.13561304
0000c0 fc 2f 2d 3d 2b 7c 9b 3d 6b 03 80 be f4 83 9d bd
       0.04228209 0.075920425 -0.25002608 -0.07691184
0000d0 d2 2e b1 bd 71 fd 10 3e 73 b3 c3 3d 8b e7 f8 3d
       -0.086515084 0.1415918 0.095557116 0.12153538
0000e0 d7 39 19 3e ae 86 5c bc b1 b1 9d bd e1 06 b7 3d
       0.1496347 -0.0134598445 -0.076999076 0.08936859
0000f0 d5 61 87 3c ec a1 a5 3d 21 bd 86 3d 75 d2 a8 bd
       0.016526142 0.08087525 0.06579042 -0.082432665
000100 a8 70 cb 3d 2d 9e d4 3a 34 9f 7a bc 65 88 a3 bc
       0.09933597 0.0016221456 -0.015296746 -0.019962499
000110 74 82 5a 3d cf b7 e3 bc e7 ce c5 bd 0a 00 27 3d
       0.053347066 -0.027797608 -0.09658604 0.04077152
000120 b2 38 3f 3d 5b 75 06 bd f4 6b 01 bd 86 98 9d bd
       0.04668493 -0.032826763 -0.031597093 -0.07695107
000130 14 27 c1 3c 08 ee 4d 3d 0e 9e 7f bd 7d 91 ac bd
       0.023578204 0.050275832 -0.062406592 -0.08426187
000140 eb 3c b8 bd 9a 83 36 bc 49 b4 5c bc 3d 4d b5 3c
       -0.08995994 -0.011139775 -0.013470718 0.022131557
000150 6a 87 a6 3d e8 f9 4f 3c 1e 17 01 bd 78 c0 bf bd
       0.08131297 0.01269386 -0.031516187 -0.093628824
000160 6f b8 d3 bd 6f 0d 00 bd e1 0b 94 3d 03 30 23 3e
       -0.10337912 -0.03126281 0.07228828 0.15936284
000170 d0 6d 80 bd ec 03 94 3b 96 c3 a0 3c 3c 35 08 be
       -0.06270945 0.004517069 0.019624513 -0.13301557
000180 1b ce c2 bd 69 12 b6 bd 20 72 78 3d ed 90 a2 3d
       -0.09511968 -0.0889023 0.060655713 0.07937799
000190 f7 74 f1 3d ac fc e0 3d f5 e0 24 3d 6b a7 27 be
       0.117898874 0.10985693 0.0402536 -0.16372459
0001a0 87 fd a2 3c db d9 9a bd e5 91 ed 3d 9e 6f a4 3d
       0.019896282 -0.07561084 0.11600093 0.08029102
0001b0 ed 84 27 3e a0 89 1a bd 5a 00 be bd 52 68 9e bc
       0.16359301 -0.037728906 -0.09277411 -0.019336853
0001c0 d7 2c 33 3d 83 7a ec 3d 36 48 49 be d8 26 b4 bd
       0.043743934 0.11546805 -0.19656453 -0.08796471
0001d0 1e 00 67 bd 69 a0 98 3d da ac 4e 3d 42 a5 1b 3e
       -0.056396596 0.07452471 0.050457813 0.1519976
0001e0 57 e3 e5 3c eb 8b bb bc 92 4a ae 3d aa 82 df bd
       0.028062506 -0.022893867 0.08510317 -0.10913594
0001f0 58 2c b6 bd 62 84 55 3d c6 d0 e0 bb ee 9f fa 3c
       -0.08895177 0.052128203 -0.0068608252 0.030593839
000200 04 61 1b bb 52 a9 57 be 3a 85 95 3c 99 d5 24 be
       -0.002370895 -0.21060684 0.018252004 -0.16097106
000210 22 83 29 3e fb 6b a7 3d 7b 78 f5 3d c5 29 32 3e
       0.1655393 0.081748925 0.119858705 0.17398746
000220 1e a4 c0 bd 9d fd 61 3e 3f 9a 8c bd 3e 56 b3 3d
       -0.09406303 0.22069402 -0.068653576 0.08756684
000230 71 05 c0 bd 65 e5 17 3c 90 20 22 be 88 d1 40 3b
       -0.09376038 0.0092710005 -0.15832734 0.0029421765
000240 c8 95 a9 3d e3 d0 50 be 28 41 10 be ed 2a e4 bd
       0.08280522 -0.20392184 -0.14087355 -0.11141
000250 be ef c3 3d d9 24 29 3e 63 1e f7 3d b4 e7 02 3e
       0.095672116 0.16517963 0.12066343 0.127837
000260 d9 63 53 3e 35 bb 25 3e f8 28 91 3b be fa 2d be
       0.20643558 0.16184695 0.0044299327 -0.16990182
000270 fd 5b 33 3e ec 3a 88 3e 3c f1 a6 3d c1 86 cb bd
       0.1751556 0.26607454 0.081514806 -0.09937812
000280 1b 06 ec bd d8 46 52 be 17 8b dc bd 83 77 77 bd
       -0.11524602 -0.20534837 -0.10768717 -0.06041671
000290 c3 54 84 3e 92 77 a1 bd 8f 71 eb 3d 90 21 71 3d
       0.25845918 -0.07884134 0.11496269 0.0588699
0002a0 6e 6b 78 3d 21 da d9 bd 64 f8 3a be 3b e7 e3 bd
       0.060649328 -0.10637308 -0.18258816 -0.11128088
0002b0 a4 ad 5d bd 95 0d 9f be 52 b9 5d be c6 a1 6b 3e
       -0.054120675 -0.3106505 -0.21652725 0.2301093
0002c0 a5 0a a8 3e 5d c1 6b 3d c1 6b 20 be 5c 87 3e bc
       0.3282062 0.057557452 -0.15666105 -0.011628952
0002d0 3e e4 87 3b 9e 50 2d 3e a7 a8 59 bd 93 fe 58 3d
       0.0041470816 0.16925284 -0.053139355 0.052977156
0002e0 56 7d bc 3d 56 c0 44 be 87 a8 41 be dd a0 f5 bd
       0.092035934 -0.19213995 -0.18911944 -0.11993573
0002f0 59 72 bd 3d bf d7 7d bc 17 d7 7b 3e df 86 2d 3e
       0.09250326 -0.015493332 0.24593769 0.1694598
000300 b4 2f 91 bd a8 87 b3 3d 96 29 7b 3d b3 43 89 bc
       -0.07089177 0.08766109 0.061318956 -0.016755914
000310 11 3a 7f 3d c1 fd 9c 3c 15 6b 04 3e 5a 6e 4b 3e
       0.062311236 0.019163968 0.12931474 0.19866315
000320 06 44 1f be 7f 17 d5 bc d0 01 49 3d 8c 97 1f 3d
       -0.15553293 -0.02601218 0.049073994 0.038962886
000330 cb 4e a3 bd e6 4a 38 3e bd ad 8d 3d 85 4e 76 3d
       -0.07974013 0.17997321 0.069179036 0.060133476
000340 83 0f 1a 3d f6 35 e4 bb 25 4c be bd 24 7c 91 bc
       0.03761245 -0.0069644405 -0.09291867 -0.01775939
000350 4b 0d 05 bd 8b 55 23 3e ef 1b 4a 3e 60 ce b9 3d
       -0.03248338 0.15950601 0.19737218 0.09072566
000360 b1 3e b5 3d c9 6c 18 3e 40 00 8e 3d 94 23 85 3d
       0.08849848 0.14885248 0.069336414 0.065009266
000370 52 f9 4e bc b2 bd 24 3e b7 bf 31 3c 53 80 40 be
       -0.012632685 0.16087988 0.010848931 -0.18798952
000380 73 69 c7 bd 78 c9 08 be 35 11 cb bd 95 f1 1c be
       -0.0973691 -0.13358104 -0.09915391 -0.15326531
000390 a2 ac 8f 3d 2b b3 44 3d 48 85 57 3d cf 40 e4 bd
       0.07015349 0.04802243 0.05261734 -0.11145174
0003a0 49 0f b6 bd 4a ce a6 3d c2 01 b4 3d b7 a9 ca bd
       -0.08889634 0.08144815 0.08789398 -0.09895652
0003b0 9d 80 8d bd e7 0c 02 be 0f 3a 72 bd 24 c2 aa 3d
       -0.06909297 -0.12700234 -0.0591374 0.08337811
0003c0 8f 6b b9 3d 64 6f 97 bd af 47 64 be 5f 19 4f bc
       0.09053718 -0.07394293 -0.2229297 -0.012640326
0003d0 c2 d0 d6 3d 27 dc 04 3e 90 e4 de 3c c1 ff bc 3d
       0.10489036 0.12974606 0.027208596 0.09228469
0003e0 67 b7 f9 bc ce 7d f5 3c ee f4 d4 bd ef 24 3c 3c
       -0.03048296 0.029967215 -0.10398279 0.011483415
0003f0 97 68 87 3d 1e 3f 03 3e a2 03 8a bd 56 d3 19 bd
       0.06611746 0.12817046 -0.06738974 -0.03755506

lstm_layer.bias_ih_l0 f4 [256]
000000 99 7e ce 3d f3 62 2f bd e2 67 15 3e 31 14 a2 3d
       0.1008274 -0.042818975 0.1459041 0.079140075
000010 1d f0 6f 3d 06 52 82 bd eb 8b bf bd 2d af 59 bd
       0.0585786 -0.06363301 -0.09352859 -0.053145576
000020 00 a5 80 3d 2d f8 09 3e 97 b4 6e 3e 7d b4 45 bd
       0.06281471 0.13473578 0.23311077 -0.04826783
000030 42 dc 1b 3e 40 8f ce bc 6d bf dd 3d 03 b4 15 3e
       0.1522074 -0.025214791 0.10827527 0.1461945
000040 78 26 0a 3e bc 76 f8 3d 99 7d ba 3d 57 c6 e1 bc
       0.13491237 0.12132022 0.09105987 -0.027560396
000050 00 18 dc 3d bd 84 2c 3e d4 88 cf 3d cf bd 3d 3e
       0.10746765 0.1684751 0.1013352 0.18529437
000060 d9 5a 75 bd 9f 33 e6 3d 41 c8 82 3d 17 38 10 3e
       -0.059901092 0.11240315 0.06385852 0.14083897
000070 f1 1b 7c 3e f7 08 d3 bd 02 af f2 3e 3d 60 0a 3e
       0.24620034 -0.10304444 0.47399145 0.13513274
000080 00 98 83 bc 52 16 50 bd 6a d8 f3 3d bd c1 dd 3c
       -0.01606369 -0.050802536 0.11906512 0.02706992
000090 80 cd ea 3d 5d 1d e2 3c 36 03 40 3e 67 f1 e6 3e
       0.11464977 0.027601892 0.18751225 0.4510605
0000a0 3e 24 3c 3e 2a ef 38 3e 51 c7 02 be 7d cb e5 3d
       0.183732 0.18059984 -0.12771346 0.11220453
0000b0 61 d7 53 3e e8 f3 b1 3d 9f db 16 be 88 12 94 3c
       0.2068763 0.086890996 -0.14732216 0.018075243
0000c0 26 2b 91 bd 96 15 e4 3c 08 dd 3b 3e 9a 9a ac 3e
       -0.07088308 0.027842324 0.18346035 0.33711702
0000d0 ff 36 ea 3d 55 35 08 3e a9 d8 c5 3c 21 c8 94 3d
       0.11436271 0.13301595 0.024151163 0.07264734
0000e0 72 95 10 be cf 0f f9 3d 69 51 fc 3e 26 79 ae bc
       -0.14119509 0.121612184 0.4928086 -0.021298002
0000f0 b8 96 a0 bd 36 b9 f6 3d c5 4d 7b 3d e8 5e 04 be
       -0.07841247 0.12047045 0.061353464 -0.12926829
000100 93 e5 f8 3c e6 74 93 bd 91 95 05 3e d0 e1 19 be
       0.030382907 -0.07200031 0.13045336 -0.15027547
000110 c9 8a 09 be fe 72 5b bd e7 b5 cb bd d0 25 2d 3d
       -0.13431849 -0.053576462 -0.099468045 0.04227239
000120 60 b7 9e bd 9b c2 7d 3d 0a 8d 11 3e 97 6f 00 3a
       -0.0774982 0.06195317 0.14213958 0.00048994407
000130 80 ae d3 3d 99 6c 4b bd b8 06 6b bd 8e 48 46 bd
       0.103360176 -0.049664114 -0.057379454 -0.048409037
000140 9d 13 e6 bd ff b4 b5 3d 57 b9 04 be 62 30 86 bc
       -0.1123421 0.08872413 -0.12961327 -0.016380493
000150 78 4a ff 3d ed 3c f4 bd bb 64 d0 3c ef 43 0e bd
       0.12465376 -0.11925683 0.025438657 -0.034732755
000160 88 5c b7 bd 36 81 f3 bd ff 3e 56 be 6a 4d 8c bd
       -0.08953196 -0.118898794 -0.20922469 -0.06850703
000170 95 01 22 bc a9 45 36 be 5f 66 65 bd 14 6b 3f be
       -0.0098880725 -0.1780001 -0.05600583 -0.18693191
000180 99 12 ea bc d6 10 98 bd d7 77 d6 3d f4 c2 6e bd
       -0.028573321 -0.07425086 0.104720764 -0.05829139
000190 a5 ef 24 bd 3e ce 84 bc b6 57 a5 bc 06 8e 0b be
       -0.040267605 -0.016211625 -0.020183425 -0.13628396
0001a0 6c 16 1c 3d f6 1b bb bc b5 cc f4 bd fd 6f ae bb
       0.03810732 -0.022840481 -0.11953107 -0.0053234086
0001b0 fa 50 65 bd 74 d5 c5 3c 17 62 10 be 2c b7 17 be
       -0.05598543 0.024149634 -0.14099918 -0.14815968
0001c0 55 4b 22 3d e0 05 37 bd c6 d4 e1 3d 77 42 ea bd
       0.039622623 -0.044683337 0.110269114 -0.114384584
0001d0 36 98 cb bd e9 67 6c bd 58 d1 0a bd 7d ce 7d 3d
       -0.09941141 -0.057716284 -0.033891052 0.0619645
0001e0 5f 6e 86 bd 18 c0 60 bd 56 99 f0 bd 06 d0 cb 3b
       -0.0656402 -0.054870695 -0.117479965 0.0062198667
0001f0 5d 6b df bb b1 d7 b1 3c 42 24 02 3e 2a 2a 9b bd
       -0.0068182186 0.021709295 0.12709144 -0.075764015
000200 4b fe 8e 3d 78 58 90 3c 73 6d 2a 3d a1 e4 10 bd
       0.06982096 0.01762031 0.041608285 -0.035374288
000210 13 e5 a4 3c 40 00 a9 3d fa 2f b0 3b f3 7a 11 3e
       0.020128762 0.08252001 0.005376813 0.14207058
000220 01 31 51 bd ca 9e 9e 3d da 97 61 bd 19 5e 04 3d
       -0.051072124 0.0774513 -0.055076458 0.0323163
000230 a4 29 07 3c 4b 97 a3 bc 61 5e 07 bc 31 4c 8c bd
       0.008249674 -0.019969603 -0.008262248 -0.0685047
000240 9a 25 cf bd cc 7d 44 bd 8c 4e 46 bb 3f c6 79 bd
       -0.10114594 -0.04797153 -0.003025922 -0.060980078
000250 1c ba 85 3d f5 96 ca 3b 68 5e 93 3d 77 cd 8c bc
       0.06529638 0.0061825463 0.07195741 -0.017187817
000260 a5 0e bd 3c b0 bd c5 3d 0a 93 0d 3d a0 a5 81 3d
       0.023078272 0.09655321 0.034564056 0.063304186
000270 25 bd ae 3d 79 19 90 bd 54 c2 c0 ba b3 e4 c4 bd
       0.0853217 -0.070361085 -0.0014706352 -0.096139334
000280 e2 95 05 be 9f 0b 3b 3a df eb 8b bd f6 ca a4 bd
       -0.13045457 0.00071352156 -0.06832098 -0.08046524
000290 d9 75 ed 3d 63 56 ae 3d cd 66 85 bd 34 06 c0 bc
       0.11594743 0.08512571 -0.06513748 -0.023440458
0002a0 87 21 29 3d 6c 29 cc bc de c8 30 3d d2 9f 2f bd
       0.04129174 -0.024922095 0.043160312 -0.042877026
0002b0 41 6f dd 3d e5 39 6f bd 93 6c 1b 3d 2b c9 95 3c
       0.108122356 -0.058404822 0.03794534 0.0182844
0002c0 7b c5 5a bc 19 40 84 3d ad 64 7e bd 01 42 55 bc
       -0.013352747 0.06457538 -0.06210773 -0.013016225
0002d0 bb 6c b5 3d 38 f6 9e 3c ae c7 9b bd c1 70 12 bd
       0.08858629 0.019404516 -0.07606445 -0.03575206
0002e0 d3 54 00 3d 96 1c 86 bd 4e 53 00 bd 1e 96 a0 bd
       0.031330895 -0.06548421 -0.031329446 -0.078411326
0002f0 5f 38 bc bd b7 61 08 bd eb a1 be bc 30 1f 0c 3d
       -0.091904394 -0.033296313 -0.023270568 0.03420943
000300 d8 0e c6 3d aa b0 a4 3d 9a 33 3f 3e d2 e8 8a bc
       0.096708 0.080415085 0.18672028 -0.01695672
000310 09 37 2e 3e 69 e6 88 3d e4 d4 73 3d 95 12 86 3d
       0.17013182 0.06684572 0.0595292 0.06546513
000320 78 22 e1 3d ff 19 0a 3e 71 d0 41 3e e7 92 e3 bd
       0.109929025 0.13486479 0.1892717 -0.11112004
000330 dd 39 23 3e cd 3a f2 bc 39 47 54 3d 8b 8d 29 bd
       0.15940042 -0.029569054 0.051825736 -0.04139475
000340 34 55 b7 3d d5 88 f8 bc 26 53 c7 3d f1 00 04 3d
       0.08951798 -0.030338684 0.09732656 0.03222746
000350 e3 87 47 3e 20 64 0c 3e 15 6f 87 3d 44 3c 96 3e
       0.1948543 0.1371007 0.06612984 0.29342854
000360 ed 40 3e 3c 55 0a 1d 3c 20 56 30 be cf 4a 67 3d
       0.011612159 0.009584983 -0.17220354 0.056467827
000370 bd 4a 4d 3e 35 88 85 3d d4 de f1 3e a5 32 1b 3e
       0.20048042 0.0652012 0.47240317 0.15156038
000380 5e 8c a3 bd c6 e1 32 3d 75 c5 e1 3d 3a 70 1e bd
       -0.07985757 0.043672346 0.1102399 -0.038681246
000390 41 3a 1e 3c b8 15 53 bd d2 39 02 3e 9b ba 1a 3f
       0.0096574435 -0.051534384 0.12717369 0.6044099
0003a0 0b b7 5b 3e 83 6e 74 3e 12 8e f5 b8 96 0e 89 3d
       0.21456544 0.23870282 -0.00011708973 0.06692235
0003b0 e7 a0 a5 3e d7 63 bd 3d a4 8d 9c bd 9f b5 ee 3d
       0.3234932 0.092475586 -0.07644203 0.11655735
0003c0 3e bc 20 be c9 2e 31 bc 05 cb ff 3c 95 7d 74 3e
       -0.15696809 -0.010814377 0.031224737 0.2387603
0003d0 e7 52 26 3d 17 4a 46 3d 08 0a 0b 3e d9 ae f8 3d
       0.040606406 0.0484105 0.13578045 0.121427245
0003e0 0c 67 f1 bd 64 22 6d bd 5d f4 0a 3f 47 ba 88 3d
       -0.11787233 -0.057894126 0.5427912 0.066761546
0003f0 73 0f 4c bd ab 1c b0 3c f6 f6 08 3e 4e 10 06 bd
       -0.04981942 0.021498045 0.13375458 -0.032730393

lstm_layer.bias_hh_l0 f4 [256]
000000 a6 48 cb bc 34 08 00 3c 22 04 bb 3d 84 ce 57 3d
       -0.024814915 0.007814456 0.09131648 0.052687183
000010 87 ac 34 3e 21 7f b3 bc 73 e5 51 bd 1a 8d fb 3c
       0.17643939 -0.021911206 -0.05124421 0.03070693
000020 78 2e 01 3e 8e ba 25 3e 71 9c 71 3e b3 11 8c bd
       0.12615383 0.16184446 0.23594834 -0.06839313
000030 f0 40 01 3e 9e 6e 41 3b 1f 1f 07 bd 0e d9 01 3e
       0.12622428 0.0029515396 -0.032988664 0.12680456
000040 40 ff 22 3e 1c f3 72 3d 26 d1 3a bc 5e 97 9d 3d
       0.15917683 0.05931388 -0.011402404 0.076948866
000050 bb 21 cb bc 92 2f 17 3d 0f c7 0f 3e 6f 04 39 3e
       -0.024796357 0.0369106 0.14040779 0.18068098
000060 81 03 ec 3d c8 67 59 3c 53 cb 09 3d 76 07 2c 3e
       0.11524106 0.013269372 0.03364117 0.16799721
000070 e1 17 88 3e 92 c3 01 3c e4 11 e8 3e c3 d5 13 3e
       0.26580718 0.007920163 0.4532615 0.14437012
000080 91 6a 3d 3e 72 d0 1c bd 81 b3 57 bb cd 67 d6 bc
       0.18497683 -0.038284726 -0.003291339 -0.026172543
000090 81 98 a4 bd 9d 1b 3c 3d d1 c0 83 3d da 9c 1e 3f
       -0.080369 0.04592477 0.06433261 0.61958086
0000a0 e7 ff ac 3d 6f bb 19 3e 8f 3e a7 bd ee c6 87 3d
       0.08447247 0.15012906 -0.08166229 0.0662974
0000b0 0e d3 48 3e ae b1 a1 3d ac a1 b5 bc b8 96 64 3e
       0.19611761 0.07895218 -0.022171818 0.2232312
0000c0 79 a9 db bb 82 e7 80 bd 25 27 a6 3b f1 0f ba 3e
       -0.0067035523 -0.062941566 0.0050705844 0.36340287
0000d0 8d 37 a2 bc 96 9d 6e 3d 25 d7 e6 3d 2a 8e 2f 3e
       -0.01980188 0.058255754 0.11271504 0.17144075
0000e0 e1 94 26 be f5 7d c1 3d a8 82 d4 3e 8d cf 96 3d
       -0.1626773 0.094478525 0.41505933 0.07363806
0000f0 47 48 9b bc 57 c2 31 3e ae 9d 69 bb 17 ae 2c bd
       -0.018955363 0.17359291 -0.0035646963 -0.042158213
000100 05 25 9b bd 6b 3c 44 bd 2b 97 0a 3e 5a cb 83 bb
       -0.0757542 -0.04790918 0.13534229 -0.004022044
000110 a3 d1 23 be 00 50 9b bc 1d 3c 91 3c fe a0 50 bc
       -0.15997939 -0.018959045 0.01772886 -0.012733696
000120 38 fd 5a 3c 82 29 8e 3d a8 32 93 bd d7 d3 35 be
       0.013366036 0.06941511 -0.07187396 -0.17756592
000130 75 da 71 ba 29 ed 22 bd 28 f8 c5 3c ea 05 80 bd
       -0.0009225973 -0.039776955 0.024166182 -0.06251128
000140 03 58 a6 3d 72 4a 00 bd 10 b4 03 bb 45 ec 7f 3d
       0.08122256 -0.031320997 -0.002009634 0.062481184
000150 f4 0d c9 3d 73 fe 22 be 6e 20 ce bd 1e 9b 03 3e
       0.098171145 -0.15917377 -0.10064779 0.12852141
000160 72 ac b8 bb 27 53 6c bd 33 86 f4 bd 9b ee f9 3d
       -0.0056357915 -0.057696488 -0.11939659 0.122037135
000170 43 6a 58 3d f8 1c 18 be 59 12 f7 bd c6 78 1d be
       0.052835714 -0.148548 -0.120640464 -0.15378103
000180 be b0 bb 3c c5 89 bd bc fb d6 93 3c e4 1a 2e bc
       0.022911426 -0.023136983 0.018046847 -0.010626528
000190 40 30 6f 3d c2 bf 75 bd 3a f2 0d be 45 95 fb bd
       0.058395624 -0.059997328 -0.13861933 -0.1228433
0001a0 f1 f4 59 bc 1e 4f cd bd b9 be 6e 3c 9f d8 01 be
       -0.0133030275 -0.10024856 0.014571839 -0.1268029
0001b0 dd 9d 06 3e 29 66 9a bd 43 ba 43 be 28 1e f0 bc
       0.13146158 -0.07539017 -0.19114022 -0.029311255
0001c0 c0 0a 39 bd c8 22 eb bd 57 25 ec bd a5 fe 70 bb
       -0.045176268 -0.11481243 -0.115305595 -0.0036772874
0001d0 92 bf 01 be 3f 74 a9 bd 1b ad 03 be 35 f2 d9 bd
       -0.12670735 -0.08274125 -0.12859003 -0.106419004
0001e0 ed 54 cf bc 0c f7 0a bd cb 02 08 be 1b 24 bc bd
       -0.02530905 -0.03392701 -0.13282315 -0.09186574
0001f0 a0 94 4d bd c9 16 c6 3d 56 4b f3 3d 44 63 16 3d
       -0.050190568 0.09672315 0.118796036 0.03671576
000200 ff 0e 90 bd 7a 28 fb 3c aa 49 69 bc 56 15 03 bd
       -0.0703411 0.03065895 -0.014238754 -0.03200277
000210 ff 17 97 bd 2a ae 80 3d 9a c4 17 3c 1f c8 9b bc
       -0.07377624 0.06283219 0.009263182 -0.019016324
000220 55 0f d9 3d a2 39 68 bd 87 a7 8c 3d 51 a8 1a 3d
       0.105986275 -0.056695588 0.06867891 0.037758175
000230 fc fd 58 3d 90 d5 69 3d 29 d3 c0 bd bf 53 d3 3c
       0.052976593 0.057088435 -0.094152756 0.02579677
000240 50 84 f7 3d 65 04 d4 bb f6 97 b3 bd 3d d5 ad bc
       0.120857835 -0.0064702504 -0.087692186 -0.021219844
000250 60 59 84 bd 4b 19 8d 3d dc d6 61 bd 92 bb 78 bc
       -0.064623594 0.0688959 -0.055136546 -0.015181439
000260 79 8b b0 3d 86 e9 92 3c df d0 27 3d 44 45 d9 bc
       0.08620352 0.017933618 0.04097068 -0.026522286
000270 88 fc b4 bd 65 75 53 3d 14 a1 40 3a 44 3b c3 3c
       -0.08837229 0.051625628 0.0007348221 0.023831971
000280 37 0f 8b bd a9 be d5 bd 66 1d 82 bc d7 f7 5c 3d
       -0.067900114 -0.10436756 -0.015883159 0.053947296
000290 c7 4b 91 3d 3b de c5 bd 3a 8d ad 3d d6 23 92 ba
       0.070945315 -0.09661528 0.084742025 -0.0011149596
0002a0 c4 66 00 bd b2 e9 7f bd e4 6e 98 bd bb 79 a0 3c
       -0.031348005 -0.06247873 -0.07443026 0.019589296
0002b0 2f e9 ca bd 3a 78 1c 3d f6 a0 9e bd e4 de b3 3c
       -0.099077575 0.038200594 -0.077455446 0.021956868
0002c0 7e 1a d7 3b 17 d3 8c bd bb 10 75 bc c0 b6 a3 bc
       0.0065644374 -0.068762 -0.014957602 -0.019984603
0002d0 68 d5 7b bd cc 94 98 3d e8 dd 17 3d 3a f6 d9 3d
       -0.061482817 0.07450256 0.03707686 0.10642667
0002e0 e3 8d 5b 3c 5c 7f 84 bc 30 40 e5 3c f8 21 3e 3d
       0.013400528 -0.016174011 0.027984709 0.046419114
0002f0 48 92 e5 3d 73 fd 0f 3d 80 d6 77 39 08 d1 b4 3c
       0.112095416 0.035153817 0.00023635663 0.02207233
000300 59 3c 2c bc 4f ab fd 3c 5e 9a 96 3e 08 2a 8d 3d
       -0.010512435 0.030965475 0.29414648 0.068927824
000310 c1 7b 57 3e 1a f4 6a bd f4 3b 36 3d 27 fa 07 be
       0.21043302 -0.0573617 0.04449077 -0.1327902
000320 ef a4 83 bd 77 50 13 3e 2a 70 02 bc 60 7e 46 bd
       -0.06427943 0.14386164 -0.007961312 -0.048460364
000330 88 7d 57 3d a7 2c e5 bd 17 67 05 3d 1f 66 25 bd
       0.05260995 -0.111901574 0.032569017 -0.040380593
000340 c6 bd 89 3e 21 d8 5b 3d 9d 3c 07 3e 8e a0 00 3d
       0.26902598 0.053672913 0.13206716 0.031403117
000350 07 f4 0e 3e 99 98 a2 3c 1b a2 bb bd 77 2f b0 3e
       0.13960277 0.019848155 -0.091617785 0.34411213
000360 98 37 1d bd ab 5a 67 bd ef 2d 83 bd 87 2c 2f 3e
       -0.038383096 -0.056482952 -0.064052455 0.1710683
000370 35 ee b0 3e 34 57 a3 3d 4b 8e 04 3f 6d 98 8f bd
       0.34556738 0.07975617 0.5177962 -0.07011495
000380 d0 e9 76 bd f9 31 12 bc ce 98 04 3e 31 66 24 3d
       -0.060281575 -0.008923047 0.12948915 0.04013652
000390 93 76 29 bd c5 2e 7f 3d 9e 0f 2b 3e cf 97 1a 3f
       -0.041372847 0.062300462 0.16705176 0.6038789
0003a0 57 f6 01 3e 46 ed 14 3e 4f 90 d1 3c 63 c2 0c 3d
       0.12691627 0.14543638 0.025581507 0.03436507
0003b0 8f ac 0a 3e ce d9 97 bd c4 1d 41 3d c6 92 00 3e
       0.13542388 -0.0741459 0.047147527 0.1255599
0003c0 49 ca c5 bd cb ec 16 bd 6b b2 ed 3d bb c1 94 3e
       -0.096577235 -0.036846917 0.11606296 0.29054055
0003d0 98 67 d0 3d 98 30 da bb fc f0 85 bc 06 d2 56 3c
       0.10176009 -0.006658625 -0.016350262 0.013111597
0003e0 9a 3c f6 ba ce ea af 3d 21 0f d1 3e f4 8b f3 3d
       -0.0018786371 0.08589707 0.40831855 0.11891928
0003f0 f1 a9 b3 bd 5c 2d e8 bb da 10 08 3d 96 b5 26 bd
       -0.08772648 -0.0070854854 0.033219196 -0.040700518

fc.weight f4 [1, 65]
000000 87 98 9c 3f 85 84 e9 bd dc f5 0c 3d 10 49 e1 bc
       1.2234048 -0.11402229 0.034414157 -0.02750066
000010 76 25 9f 3d 1a e7 4b 3e 24 ac ce 3e e0 bf c8 3f
       0.07770817 0.19912377 0.40365708 1.5683556
000020 ea 54 13 be 17 3c 9d bc 54 de 04 c0 01 c0 fe 3d
       -0.14387861 -0.019193692 -2.0760698 0.124389656
000030 46 e9 a7 bf e6 de 35 bd 2d 24 a5 3d ee f1 26 bf
       -1.3118064 -0.044402026 0.080635406 -0.65212905
000040 ff 8d 42 be 21 43 5a 3f 97 c1 0b bf ad 71 b5 3f
       -0.1899948 0.8525868 -0.5459227 1.4175316
000050 66 ed 91 3f bd e9 c9 be 23 51 96 3e eb f1 c0 be
       1.1400573 -0.3943614 0.29358777 -0.3768457
000060 4e d1 be bf 83 44 4a be 4c 82 8b bc 93 bc 51 3f
       -1.4907625 -0.19752698 -0.017029904 0.81928366
000070 85 c9 7c bf dd 13 b1 bf 87 46 3b bf 5c 00 95 bf
       -0.98744994 -1.3834187 -0.7315449 -1.1640735
000080 c5 9c 5d bf 01 c5 98 bf 89 2b 18 c0 d0 60 21 3f
       -0.86567336 -1.1935121 -2.3776572 0.6303835
000090 20 9e 90 3f 95 fb 36 3f d6 b0 27 bf e1 c8 8f be
       1.1298256 0.71477634 -0.65504205 -0.28082946
0000a0 68 be 27 bd 15 07 f6 3e 51 ad 0d 40 44 73 87 be
       -0.04095307 0.48052278 2.2137034 -0.26455128
0000b0 32 c2 72 3d f9 d4 54 3f d2 ad 04 3e 72 18 0d bf
       0.05926723 0.8313747 0.12956932 -0.55115426
0000c0 4e 0e 0b be 85 fe 0a 3e 4b 37 7e bf 7e 77 35 3f
       -0.13579676 0.13573654 -0.9930312 0.70885456
0000d0 1e 7c e3 bd 93 3b 08 bf 27 bb 97 bf 61 35 22 3e
       -0.11107658 -0.53215903 -1.1853989 0.15840675
0000e0 87 b2 51 3f 59 5a a4 3f d1 a3 6e bd 6a ed a6 bf
       0.81913036 1.2840072 -0.058261696 -1.3041203
0000f0 0d f0 0d 3f b7 45 9f 3f 01 fb 3f bf 21 db 44 c0
       0.55444413 1.244315 -0.74992377 -3.0758746
000100 8d ce 6d bf
       -0.92893296

fc_final.weight f4 [1, 128]
000000 0b e8 22 3e f1 7c 15 3e cc 2f 95 3e ed 0b 20 be
       0.1590883 0.14598443 0.2913803 -0.1562955
000010 d5 79 33 be 04 ef 3f 3e 18 91 28 be b3 a0 10 3e
       -0.17526944 0.18743521 -0.16461599 0.14123802
000020 b8 96 ce bc 65 22 3b be b4 22 3b 3e 19 09 0c 3e
       -0.025218353 -0.18274839 0.18274957 0.13675345
000030 ca ee 57 3e 49 42 ce 3d 1b 4e 0c 3e 2e f8 07 3e
       0.21087185 0.10071237 0.1370167 0.13278267
000040 1f 42 82 be 07 0e 25 3e c7 5a 35 be aa 2e 2b be
       -0.2544107 0.16118632 -0.1771041 -0.1671702
000050 23 8a 43 be 19 7b 50 3e 38 6b 24 3e aa 36 9c be
       -0.19095664 0.20359458 0.16056526 -0.30510455
000060 56 91 23 be 32 02 f6 bd ea c9 2a 3d a0 03 4d 3e
       -0.1597341 -0.120121375 0.041696467 0.20020914
000070 51 16 6a be 51 07 6b 3d 8f d7 84 be af a0 3e be
       -0.22860076 0.057380024 -0.25945708 -0.18615983
000080 bd b5 22 be 5b 18 1c 3e 19 02 39 3e a5 28 be bc
       -0.1588964 0.15243666 0.18067206 -0.02321274
000090 ee e4 cf bd 7a ee f5 3d 67 32 48 be f4 5d c1 be
       -0.10151087 0.120083764 -0.19550477 -0.37766993
0000a0 52 96 5e be ee 30 97 be 61 60 d0 3d e5 3b 08 be
       -0.2173703 -0.29529518 0.10174633 -0.13304098
0000b0 4e 17 c1 3e 5d 12 14 3e 1b 46 55 3d 3a fa 2b 3e
       0.37713093 0.1446013 0.05206881 0.16794673
0000c0 87 f1 ab bd f3 83 d5 bd e8 1b 3d be 4c e0 40 be
       -0.08395677 -0.10425558 -0.18467677 -0.18835562
0000d0 6b 31 12 3e 98 88 f6 bd ac 68 10 be c5 a7 4c 3e
       0.14276664 -0.12037772 -0.14102429 0.19985874
0000e0 2c 12 96 3d bc f8 03 3e 4f 7b 75 3e 03 94 36 3e
       0.07327685 0.12887853 0.2397282 0.178299
0000f0 29 fd f7 3d 96 d0 39 be 22 48 01 be 5b 55 ed bd
       0.12108833 -0.18145975 -0.12625173 -0.11588546
000100 e4 2d 84 3d 85 c1 13 be 8c 29 40 3d eb c5 c1 bc
       0.064540654 -0.1442929 0.046914622 -0.023653945
000110 c1 9f bb 3c c2 27 6d 3a 82 92 2d 3d 53 7b b6 3d
       0.022903325 0.0009046757 0.04237605 0.08910241
000120 b3 9f ae bd d1 76 9d bd fa 42 d1 be ca 4f d3 bc
       -0.08526554 -0.07688678 -0.40871412 -0.025794882
000130 10 d0 91 3c f1 bc 87 3b a6 a1 91 3d 77 94 77 bd
       0.017799407 0.0041423966 0.0711091 -0.06044432
000140 49 bd ca b9 58 b2 49 3d 8e bc 68 be 61 e1 19 3e
       -0.0003866947 0.049242347 -0.22728178 0.15027381
000150 0a 81 34 bc 47 22 71 be c4 63 a9 3d 06 f0 bd bd
       -0.011017093 -0.23548232 0.08270982 -0.092742965
000160 bb 6b 22 be 84 a3 c5 bd 9e af d0 3c 21 99 e4 3c
       -0.15861408 -0.09650329 0.025474366 0.027905049
000170 cb 3e c3 bd 90 44 8b bd a0 95 8f bd 1b f8 8e 3c
       -0.09533461 -0.06800187 -0.070109606 0.01745229
000180 3e 48 a4 3c a6 73 ba bd 0e 5e 92 bd 0b 7f 9a 3c
       0.020053979 -0.091040894 -0.07146846 0.018859407
000190 05 4b e8 3e 8c f1 0c 3e 6f 02 ea 3c ab be 3d be
       0.45369735 0.13764018 0.028565614 -0.18529765
0001a0 92 f5 64 bd 6f 26 f1 3d 43 e9 89 3d cd 6a 20 be
       -0.055898257 0.11774909 0.06733944 -0.15665741
0001b0 f8 1e 9d 3d 69 96 51 bc 70 6b c2 bc 9f 9c cc bd
       0.076719224 -0.012792208 -0.02373287 -0.099908106
0001c0 9f d4 fa bd 19 cd d1 3d 49 6c 46 be 8b 8b 08 bd
       -0.122475855 0.102441974 -0.19377245 -0.033336204
0001d0 0a 2a 53 bd 96 26 a4 be 27 02 21 be 9a 4d 66 bd
       -0.051553763 -0.3206069 -0.15723477 -0.05622635
0001e0 e8 c4 5d bb d9 88 37 3c cf 6a e7 3c a0 f5 d2 3c
       -0.003383929 0.011202061 0.028249172 0.025751889
0001f0 95 3e 4b bd 7d 67 76 3e 85 78 27 bd 4e 56 df bd
       -0.04962023 0.24062915 -0.04088642 -0.10905133
