darnn3++/models/encoder.pth (torch_old, 152111 bytes, 5 tensors)

lstm_layer.weight_ih_l0 f4 [256, 81]
00000000: e9fd dbbc 69b8 c63c c49d 813d 3488 98be
00000010: 7967 d7bc dafd 51bd 6f13 793d 8e7e 8fbc
00000020: 66d4 063e 1ebd 0fbe 2acb f53d 6a16 f13d
00000030: d089 2abc 6a94 433d cbae 883e 886b a93d
00000040: 9f5a 68bd 081b 4abe f715 c83c 513c 303e
00000050: 236a 8d3d 230e b43e df73 acbd 66d6 a93d
00000060: 32c2 6abc 9399 773e bacc 54be 1fe6 843d
00000070: 65a0 953b 2d34 a83e b507 b5bd 4481 5fbe
00000080: 8394 1f3e f510 db3d 6288 8abc 62a1 21be
00000090: a9ee 01be 9d4f 723e a7a4 033e 7c42 e63c
000000a0: f480 213e 3e9e 103a ea2a 9ebd 4f45 7f3c
000000b0: 449b 933c c737 8abe b5fc f8bb aae7 9d3e
000000c0: 36b7 a03e 2d22 b63d 4890 28be 48ec c7bb
000000d0: 3e29 26be 9b49 003d f8bf 29bd 39fe 903d
000000e0: 2139 66bd 55f1 933e 8230 253d 0e5e 433e
000000f0: e6c1 f03c 3646 08bd d709 ccbd e0ed 83bd
00000100: 676e a3be dc33 893d 6c57 eebd c693 8dbc
00000110: 02c7 693d 384f 653e c468 de3d 36e0 6abc
00000120: 728b 723e aecf 453d 23cf 86bd 7352 47be
00000130: f25d f93d bc4a 293e 9f20 78be 76aa cabd
00000140: 27d9 0bbc 7fb3 fe3d 1d0c 7ebd 685b 3ebe
00000150: fa48 62bc 7de1 bf3d ff5f 0ebe 1cd1 dcbd
00000160: 2e6d 0f3c 4097 ecbd afe6 59bd 935b 623c
00000170: 5401 fabc 51a7 0fbe 3a4d fd3b 5978 07be
00000180: 094f 7bbd ca18 aebc 17e7 9a3d 31a8 69be
00000190: 536e 0bbd 0284 7abc 8de6 45be 3425 933c
000001a0: 6545 1f3d dae3 833c cfc2 16be 1f3c b3bd
000001b0: 7649 223e 14c7 f8bc e101 b0bd 1e93 063c
000001c0: 3476 283e fb7a 293e 0db3 4b3c e68f ab3d
000001d0: 7683 133e d363 123e be20 3fbe 8c80 8bbd
000001e0: 3fe1 a03d ad8c efbb 21ec 8cbd b9a4 a9bb
000001f0: febd aebd a9b6 0e3d 2242 2e3e 4a45 5fbd
00000200: 4e50 a53d c598 a03a 6bcb 5bbd b482 92bd
00000210: b58d 53bd 1877 17bd 63d8 d0bd 54f0 10be
00000220: d314 023d 2ce9 b7bd 48de 3c3d ba36 fa3a
00000230: 8d13 ccbc 5f12 213d 3d82 e43d fcd4 933d
00000240: c4aa 063e bfbd 743e a99b 433d 9fd3 8ebd
00000250: 471b 21bd 43d1 0e3e 9255 69be 79ee 23bd
00000260: 1032 e3bb ad77 3dbe 2799 143e 6c83 37bd
00000270: b117 15bc 45c0 0f3c 0917 cbbc 5efb b33d
00000280: 7b75 583c f535 adbd 450a 1a3e b399 31bc
00000290: 4862 04be a7be 583e 6df6 56bd d330 c43d
000002a0: caad 59bd 54e7 dcbd 796a c0bb 2822 453d
000002b0: cb3a 9ebe 8161 3bbe 2610 e7bd 92cb 09bd
000002c0: 9b1a 67be 091d 113e 8dda 83be 17fd d63d
000002d0: 85fd 8fbe 2ca4 c9bc 40b1 663d 39a2 4dbe
000002e0: 7dc9 e83d 2f96 03be 3680 75bd 5ff0 0cbe
000002f0: fed8 b43c b4e3 123e 7b36 8dbd 789b 12be
00000300: 2b55 423d 85e2 493d 98a9 423e 4d84 5abe
00000310: 9fda 473e c5d2 133e 5ea7 5a3e cf2a 4bbe
00000320: 7630 6fbe f073 dcbc 0ab9 72be 279b 8ebd
00000330: f2ea 08be c8be e4bc cb41 683e fe29 f03c
00000340: f302 abbd 6f9b 8bbb 4f3c 13be c16a 83bd
00000350: c425 b9bd ebe0 64bd 3cf9 18bd 9041 b4bd
00000360: 65b5 e93c f26f 893d feb7 ec3d 5a81 6abe
00000370: 4697 f13d dc74 04be 290a c13d 00ac 273e
00000380: 688b d93d 4928 573e 08ff cd3e 94dc cabd
00000390: 767e 643d 2dae 9dbd 4265 543e 6336 c7be
000003a0: 8819 803c 80c5 9cbc b63f 20bd f101 d53d
000003b0: 8926 4fbd 8c29 053e adc9 4fbd d439 e8bd
000003c0: 570a e13c 7519 0d3d b256 1bbe be01 d8bc
000003d0: 5b8a 4b3b 472a b53c 6f5a e33d da53 fa3b
000003e0: 5006 e33c e9ff 24bd cffc 10be 9788 9ebd
000003f0: 2d2b 233c 2b34 9a3d 212c 11bd 1daf a63d
-0.026854472 0.024257855 0.063289195 -0.29791415 -0.026294457 -0.051267482 0.06080955 -0.0175164
0.13166961 -0.14036986 0.12001641 0.11771853 -0.010408834 0.04774896 0.26695856 0.08272463
-0.056727048 -0.19736874 0.024424536 0.17210509 0.069050096 0.35167035 -0.08420538 0.082928464
-0.014328526 0.24179678 -0.20781222 0.064892046 0.0045662397 0.32852307 -0.088393606 -0.21826655
0.15583996 0.10696594 -0.016910736 -0.15784219 -0.12688698 0.23663183 0.12855779 0.028107874
0.15771848 0.0005516744 -0.07723029 0.015580489 0.018018372 -0.2699568 -0.0075984844 0.30840808
0.3138978 0.08893237 -0.16461289 -0.006101165 -0.1622667 0.031320196 -0.04144284 0.07079739
-0.056206826 0.2889506 0.040329464 0.19078848 0.029389333 -0.033270083 -0.09962814 -0.064418554
-0.31920168 0.066993445 -0.11637768 -0.017282378 0.057074554 0.22393501 0.10859826 -0.014335683
0.23686007 0.048293762 -0.06582477 -0.19465046 0.12176122 0.16532415 -0.24231194 -0.09895794
-0.00853566 0.1243658 -0.06202327 -0.18589556 -0.013811344 0.0936918 -0.13903807 -0.10782072
0.008754058 -0.11552286 -0.053198513 0.013815778 -0.030518211 -0.1402867 0.0077301534 -0.13229503
-0.06135467 -0.021252055 0.07563608 -0.22818066 -0.03404076 -0.015290262 -0.1932623 0.017962076
0.03888454 0.016099859 -0.14722751 -0.087517016 0.15848336 -0.030368365 -0.085941084 0.008213786
0.16451341 0.1655082 0.012432826 0.08377056 0.14405617 0.14295892 -0.18664834 -0.06811628
0.07855462 -0.007310471 -0.068809755 -0.005177107 -0.08532332 0.034842167 0.17017415 -0.05450944
0.080719575 0.001225256 -0.05366079 -0.07153836 -0.051648814 -0.03697881 -0.101975225 -0.14154178
0.03175814 -0.08980021 0.04611042 0.0019089796 -0.024911666 0.03932416 0.111576535 0.07218358
0.1315108 0.23900507 0.04775587 -0.06973957 -0.039332654 0.13947015 -0.22786549 -0.040022347
-0.006933458 -0.18502684 0.14511548 -0.044803068 -0.009099887 0.008773868 -0.024791257 0.08788179
0.013211603 -0.08457557 0.1504298 -0.010839867 -0.12928116 0.21166478 -0.052481104 0.09579625
-0.053144254 -0.1078631 -0.0058720675 0.048128277 -0.3090423 -0.18298914 -0.11282377 -0.033641405
-0.22568743 0.14171232 -0.2575268 0.10497492 -0.28123108 -0.024614416 0.056321383 -0.20081414
0.11366556 -0.12850259 -0.059936725 -0.1376357 0.022076126 0.14344674 -0.06895157 -0.14317119
0.047444504 0.04928829 0.19010007 -0.21339531 0.19516991 0.14435871 0.21352908 -0.19840549
-0.2335833 -0.026910752 -0.237034 -0.06963187 -0.13370875 -0.027923003 0.22681348 0.029316898
-0.08350172 -0.0042604725 -0.14378475 -0.06416846 -0.09040406 -0.05587856 -0.037347063 -0.088015676
0.028528878 0.06710805 0.11558531 -0.22900906 0.11796431 -0.12935203 0.09425766 0.16374207
0.10622293 0.21011461 0.40233636 -0.09905353 0.055784665 -0.07699237 0.20741752 -0.3890868
0.015637174 -0.019137144 -0.03912326 0.10400761 -0.05057386 0.1300413 -0.050729442 -0.11339155
0.02747075 0.034448106 -0.1516979 -0.026368018 0.0031057808 0.022114886 0.11101233 0.0076393904
0.027712971 -0.040283117 -0.14158939 -0.07740896 0.009959024 0.075294815 -0.035442475 0.08138869

lstm_layer.weight_hh_l0 f4 [256, 64]
00000000: dfa3 45bb 4bb3 e7bd bd20 0cbd 1ead 34be
00000010: 7a3f 1ebe c125 c5bd 4e76 f53c 49fb 113e
00000020: b994 22bd e1f2 883c 3e7b 443d 55c6 a7bd
00000030: 87bc e6bb db15 7d3c b8ce 7a3c af62 11bc
00000040: 3679 fe3c 7029 aabc 7106 2cbb cda6 cfbd
00000050: a2e0 093c 0fa4 c3bd 9ae6 1e3d 8ea1 973c
00000060: d293 183e 976f bdbc f437 113e 77bc 09bd
00000070: 4473 6d3d 096b 64bc ee38 c7bd a468 033e
00000080: 90a7 383e e2e4 f73d 2e1a 5ebd 057d 123e
00000090: 6f53 13be 657a a43d b610 353e 1960 8b3c
000000a0: 3a4e e33c b66f b63d acac f63c ee5a 82bd
000000b0: 2bcd 11bc 8a26 a83c 2442 dc3c a8e8 54bd
000000c0: 4e24 293d 017f cd3c 29ea a9bc 463c bbbd
000000d0: ed3b 59bd 947e 753d 6249 323e 9b26 edbd
000000e0: 26a6 f2bd 1ab9 06be fb7c d73d 4b05 b13d
000000f0: 030a 163e 17e9 c2bd 7ac9 95bc 9748 2bbe
00000100: 4a4b 7bbd e806 1dbd 1b88 d63c 61bb 76bc
00000110: de44 b8bd 50f3 04bd aa1a b0bc dab5 803d
00000120: 61b4 b03d c4cf b9bc f0f7 00be fd87 d5bd
00000130: 47ad b43d 2586 4f3c 5a83 163e 5b0e 11be
00000140: 0112 163d 2e03 60bd 21f4 1f3e 264b 21bd
00000150: e537 613d ceb2 b23d fbb0 59bb 7ae7 6cbd
00000160: 5e0c 2fbd 771c 363d 3f58 c9bd 70f7 67bd
00000170: 988a 903d 84be 213b 9c7c 08be 5bbb d93d
00000180: 5f72 a7bd 6249 eb3d 829d 87bd 3f80 9d3d
00000190: 072e a8bb 16d2 2dbd 05c1 ccbc b600 cb3d
000001a0: ca88 c73b d3e8 ba3c 340b d73d 8dd1 8e3c
000001b0: 15d5 dabd b25d 7a3d c61c c6bd 0fa1 e63d
000001c0: 06b6 1d3e 1487 8f3d 4a88 6e3d f43b d0bd
000001d0: 50e8 073d bd0f 073c dcdd d53d 1ea5 86bd
000001e0: 2852 8dbc d18e 05bd 9a5f eb3d 956d cd3d
000001f0: 7354 f13d 3879 1d3e fd19 c2bd e58e 90bd
00000200: 97d3 b7bb fa33 863d dfd0 06be 704a 31be
00000210: 0d45 8dbd c433 d73c 1c66 273e cb9c 78bd
00000220: edb8 99bd 6a68 073e 2281 d1bb 6f5c db3c
00000230: eb11 52bc ba10 0cbe 95e3 773d b110 08be
00000240: eb5b 27be 583c abbc 2695 9a3b 966a 18be
00000250: 670f aa3d 5ac1 f1bc 546c 85bd 7b54 e63b
00000260: aca6 0fbe 3308 b9bd bdb6 6a3d 3655 9f3d
00000270: a207 5d3d 0460 033e d40a e73a e144 133d
00000280: 327b 1c3e b5d2 113d 8a64 4f3d c42b c83d
00000290: b3e7 4ebd b760 1f3e f13c 7d3d 313d 2dbc
000002a0: 5a65 34bd cbd2 053d 04c0 59bd 057f c83a
000002b0: b80d 29bb 478a 663c f1ab 883d a8d5 d23d
000002c0: 8d21 1c3d eeba 96bd fd88 b3bc 2c0a 42be
000002d0: ff24 16be bd83 2dbe 560e 063d 9c2a 29be
000002e0: b962 56bd b7d7 22be 712e 8b3d 9cb6 f6bc
000002f0: 4e15 123e 89ab 4dbd b72a debd 2568 9fbd
00000300: 8da3 c33c fffb 49bd 9411 e43c acc3 fbbd
00000310: b76c 443d a785 e03d 8afa 2c3e b4cb d03c
00000320: 0b2b b9bd a110 3dbd c5fe 51be 390a 2cbd
00000330: 2dee fdbb bad4 19bd c754 a5bc 3686 3d3c
00000340: f57d 94bd a767 33bd de94 e83c 3ea4 063e
00000350: d70b b23c a094 a6bd 29b2 8abd 0930 fbbd
00000360: 89df 4ebd 7d0d 843d 7474 9ebd e089 013e
00000370: ea59 babd 5f8c 0abe 4396 22be 6210 b03c
00000380: 6fa0 a63b b3e8 17be 4b6a 8f3d 1b77 013e
00000390: f4c2 f43d 5268 313e a2b5 a93d ed82 b83c
000003a0: 5f8f adbd 3b56 393d 5f38 b5bc 2cbc 00be
000003b0: 1404 113e 773b 47bd 7b27 0a3e f24a b4bd
000003c0: 640a c53c 3763 893d 3e12 64bc e6ea 0abe
000003d0: 3fd1 043d 6e1b a4bd 8413 ba3d e748 9fbd
000003e0: 9572 813d 91a8 833d adca 6abd c763 b6bd
000003f0: 44c9 9e3b aa93 3b3e 968f 17be 8bc4 f0bd
-0.003015749 -0.11313494 -0.03421091 -0.17644164 -0.15453902 -0.096263416 0.029963639 0.14256014
-0.039692614 0.016717376 0.047969095 -0.08192126 -0.007041517 0.015447105 0.015308075 -0.008873626
0.031063657 -0.020771712 -0.0026248957 -0.101392366 0.008415373 -0.09552776 0.038794138 0.018509652
0.14900139 -0.0231245 0.141815 -0.033627 0.057971254 -0.013941535 -0.09727655 0.12832886
0.1803267 0.12104203 -0.054224186 0.14305504 -0.14387296 0.080311574 0.17682156 0.017013596
0.027747262 0.08908026 0.030111633 -0.06365 -0.0088990135 0.02052619 0.026887007 -0.05197969
0.04129439 0.025084974 -0.02074154 -0.091423556 -0.053035665 0.059935167 0.17410806 -0.11579629
-0.118480965 -0.13156548 0.10521885 0.08643588 0.14652257 -0.095171146 -0.018284548 -0.1672691
-0.061351098 -0.038336664 0.026187947 -0.015059323 -0.089975104 -0.032458603 -0.02149709 0.062846854
0.086281545 -0.022682078 -0.1259458 -0.10426328 0.088221125 0.01266626 0.14698544 -0.14165632
0.036638264 -0.054690532 0.15620472 -0.039378308 0.054984946 0.087255105 -0.003321706 -0.05783794
-0.042736404 0.04446074 -0.09831285 -0.05663246 0.07057685 0.0024680207 -0.13328785 0.10631438
-0.081761114 0.11488606 -0.06621839 0.076904766 -0.00513244 -0.04243668 -0.024994383 0.09912245
0.0060893046 0.022816097 0.10500184 0.017433906 -0.106851734 0.06112451 -0.09673457 0.11261188
0.15401468 0.07008186 0.058235444 -0.10167685 0.033180535 0.008243498 0.10442707 -0.06574462
-0.01725109 -0.032606903 0.11492844 0.10030667 0.117836855 0.15378273 -0.09477613 -0.07058505
-0.0056099403 0.065528825 -0.13165615 -0.17313552 -0.06897936 0.026269801 0.16347545 -0.060696404
-0.07505975 0.13223425 -0.0063935677 0.026777474 -0.012821655 -0.13678256 0.060519774 -0.13287617
-0.16343658 -0.020902798 0.004717487 -0.1488441 0.08303719 -0.029511143 -0.065148026 0.007029114
-0.14028424 -0.09034767 0.05730318 0.077799246 0.053962357 0.12829596 0.0017627128 0.03595436
0.1528137 0.035601337 0.05063299 0.09773973 -0.050513934 0.15564238 0.061825696 -0.010573671
-0.04404197 0.03267173 -0.053161636 0.0015296644 -0.002579553 0.014071054 0.0667342 0.10294658
0.038117934 -0.07359873 -0.021915907 -0.18949193 -0.1466255 -0.16944785 0.032728516 -0.1652016
-0.052340243 -0.15902601 0.06795967 -0.030116372 0.1426594 -0.050212417 -0.10847991 -0.07783536
0.023881698 -0.049312588 0.027840413 -0.12293181 0.04795524 0.10962992 0.16892448 0.025487758
-0.09041413 -0.046158437 -0.20507343 -0.042001937 -0.00774934 -0.037556387 -0.020182027 0.011567643
-0.07250587 -0.043800022 0.028391298 0.13148591 0.021734161 -0.08133817 -0.067722626 -0.12265021
-0.05050615 0.06447885 -0.077370554 0.12650251 -0.09099181 -0.1353011 -0.15877633 0.021492187
0.005085043 -0.14834861 0.07002696 0.12643091 0.11951247 0.17324951 0.08286597 0.022523368
-0.084746115 0.04524825 -0.022121606 -0.12571782 0.14161712 -0.048640694 0.13491623 -0.08803357
0.024052806 0.06708377 -0.013920365 -0.13566169 0.032426115 -0.08013044 0.090857536 -0.07777577
0.06320683 0.06428636 -0.057322193 -0.0890575 0.00484577 0.18318048 -0.14800867 -0.117562376

lstm_layer.bias_ih_l0 f4 [256]
00000000: be38 afbd 57f7 b03d fe1b 9bbd c57e c13c
00000010: 3e7b 0abe 0375 663d 1ce1 353a edcb a1bd
00000020: ad7b c6bd 7dbe c8bd 4879 eabe 217a 993d
00000030: df04 11be 3991 2fbd eb5c 02be 43a7 22bc
00000040: 37b3 9bbd d81a 76be b2a6 32be 08b6 10be
00000050: 62b0 2cbe f99c 53be c334 2c3c 7eb8 12be
00000060: b243 9bbe d905 3ebc c8b4 54be e4fe 0cbe
00000070: 0c4f d7bd 6380 11be 4aab a4bd 0183 7ebd
00000080: 9fe9 8ebd a555 d7bd 9c90 cabd 5018 f33c
00000090: 6cb5 a5be 7f58 96be 8447 8bbd 72f4 1abd
000000a0: 6d47 fdbd 8594 5bbd 588c 0cbe 103e e4be
000000b0: 7dae c63d 840c 103d 8212 84bc 9eea 62bc
000000c0: dd55 eebd 29e2 55bd 7884 87be 27c0 26be
000000d0: aafe de3d 3409 82be 2d19 8fbe a29d cdbd
000000e0: 1a4b fbbc f2e3 d3bc 3d21 7e3d 4e6b ca3a
000000f0: 0303 d4bd fb46 65be 9126 f0bc 85f1 9d3d
00000100: 5a10 41be f88f 70bd 1d15 fdbd 4ead f63c
00000110: 2b3f abbd 3d9c 223e 7fbb eebd 965b 503d
00000120: b2ce d4bd 0963 553c 61de 7fbe cff0 e7bd
00000130: 25c9 a13b 1028 87bd 1782 b5bd ba6c ddba
00000140: b4b3 55bd f05f e4bd bb1e 0abe bc3f 02bd
00000150: e135 11bd b2dd 17be fa9e 0cbe 96bd 99bd
00000160: 8640 4ebe b470 ccbd 9679 c3bd c71a 98bc
00000170: 5d9e 03bd d1d3 0abe 2108 28be a70c b6bd
00000180: ba74 f73c 5ec4 4dbe 686b 91bd 2297 31be
00000190: 65a2 4d3e 450d a3bd 7787 50bd f89c 14be
000001a0: 2699 0bbe 6a14 963c 14d4 1b3d 9457 22bd
000001b0: 5e88 e1bd 88e7 1dbe abba 3fbd f7c5 96bc
000001c0: 1c16 723d 3cec 08be afe8 3ebe 9999 833d
000001d0: bbb4 bc3d 03a6 9d3d 231c 643b 40bf a63d
000001e0: 2b64 9a3d edbb 07be e1cf 5b3d 3b09 a03d
000001f0: c883 06be c714 12be 0543 04be fdf4 563d
00000200: 648c 9dbd 8f29 75bc cdad aebc 2166 e83c
00000210: 9891 343c bede 39bd a158 37bd 9029 813d
00000220: ddbe 6bbd 232c c6bc b500 c6bd 156d 803d
00000230: 523c 27bc d9ed 9dbd 2bfd d33d 3659 9e3d
00000240: e08c 4e3d 6998 40bd b9a8 b7bc fa28 803d
00000250: f793 0fbd 7d86 23bd 6dff 773d 475e a83c
00000260: 35b4 9fbb 5de7 a93c 4d57 4ebc ba25 8f3d
00000270: 1462 a8bd 78ce de3b 318b fdbc 3e45 95bd
00000280: 6e3a a2bd da00 6dbd 7354 073d 3f7e c0bd
00000290: b7e3 9b3c a07d 703d a3d4 1cbd 115c 81bd
000002a0: d153 19bd a7ba 9bbc 39d4 b6bd 8000 43bd
000002b0: da00 e13c 65bf 51bd b194 31bb 276b 473d
000002c0: 2881 e83d 081b 623d 77fa cfbd 62b3 053d
000002d0: d565 c83b 9f2b b7bd 533e 9cbd 026e 4c3d
000002e0: 6521 823d 5499 453d e208 94bd e414 94bd
000002f0: 0c78 3abd ad50 763d 5135 3a3c 3cc2 9b3c
00000300: 7e6f cbbd a5df e1bd c297 0bbe 6a7c 9dbb
00000310: a14e cbbd 1d5d 6cbc 8ae4 61be 67f1 24be
00000320: a153 d03c 999a c2bd 6352 b4be d39b 07be
00000330: 10f3 1dbe 96d6 df3c 6851 a33d 2678 d4bd
00000340: c03b 29be e30b 9dbc 1e24 3ebe 6017 7dbe
00000350: 6037 f8bd 996e 8ebd db41 84bd a5c9 5e3d
00000360: 35ba b1be 56d3 6abc d2f3 30be 7c13 aebd
00000370: 3778 93bd 4e36 48be 59f3 1cbe d40e 5dbd
00000380: f80d 93bd 0721 33be 49b5 eebd 4acc 0fbc
00000390: 0feb 33be aaf2 86bd d91f 2f3d 0454 28bd
000003a0: eb5e d3bd bd5c cc3c 11b4 66be 3974 dbbe
000003b0: 70c3 b13d 1bf3 e3bd 4bb9 dabd 48d9 d4bc
000003c0: 98fc aebd 229a 70bc b908 90be a9a6 2e3d
000003d0: 4144 823d a2ee 30be 2eca a0be f708 d7bd
000003e0: e57d 21be 56ec e5bd 592c 3b3d af8b 88bd
000003f0: cf9b 23be a949 8bbe d676 29be 63f8 36bd
-0.085557446 0.08640926 -0.075736985 0.023620019 -0.13523576 0.056263935 0.0006938146 -0.07900224
-0.09691558 -0.09801958 -0.45795655 0.07493997 -0.14162014 -0.042863104 -0.12730758 -0.009927574
-0.07602542 -0.24033678 -0.17446402 -0.1413194 -0.1686416 -0.20665349 0.010510626 -0.1432819
-0.30325085 -0.011598074 -0.20772088 -0.13769108 -0.10513124 -0.14209132 -0.08040483 -0.062136654
-0.069781534 -0.10514382 -0.09890863 0.029674679 -0.32364976 -0.29364392 -0.0680075 -0.037830777
-0.12367139 -0.053608436 -0.13725412 -0.445786 0.0970125 0.035168186 -0.016122106 -0.013849882
-0.11637471 -0.052217636 -0.26468253 -0.16284238 0.10888417 -0.25397646 -0.27948895 -0.10039832
-0.03067546 -0.025865529 0.062043417 0.0015443356 -0.10352137 -0.22390358 -0.029315265 0.07712082
-0.18853894 -0.05873105 -0.12357543 0.030111935 -0.08361658 0.15879913 -0.11656856 0.050868593
-0.103909865 0.0130241 -0.24987175 -0.113252275 0.0049373084 -0.06599438 -0.08862703 -0.0016893365
-0.05217333 -0.11151111 -0.13488285 -0.031799063 -0.035451774 -0.14830664 -0.1373252 -0.07506864
-0.20141801 -0.09982434 -0.09544675 -0.018567456 -0.03213345 -0.13557364 -0.16409351 -0.08889132
0.030207027 -0.2009444 -0.07100564 -0.17342809 0.2008148 -0.07961515 -0.05091044 -0.14513004
-0.1363264 0.018320281 0.03804405 -0.039634302 -0.11012338 -0.15420353 -0.04680888 -0.018404944
0.059103116 -0.13371366 -0.18643449 0.06425781 0.09214159 0.0769768 0.003480681 0.08141947
0.07538637 -0.13255282 0.053665046 0.078142606 -0.13136208 -0.14265738 -0.12916191 0.052479733
-0.07692793 -0.014963522 -0.021323109 0.028369011 0.01102104 -0.04537844 -0.044762257 0.063067555
-0.05755507 -0.024190968 -0.096681036 0.06270806 -0.010207253 -0.077113815 0.10351022 0.077318594
0.050427318 -0.04702035 -0.02241932 0.06257816 -0.03505322 -0.03992318 0.060546327 0.020552767
-0.0048737773 0.020740205 -0.012594056 0.06989618 -0.08221832 0.0067995153 -0.03095016 -0.072885975
-0.07921301 -0.05786214 0.03303952 -0.093990795 0.019029481 0.058713555 -0.038288724 -0.063163884
-0.03743345 -0.019009901 -0.08927197 -0.0476079 0.027466226 -0.05120792 -0.0027096684 0.048686173
0.113527596 0.05520156 -0.10155194 0.032641776 0.006115655 -0.08943867 -0.07629075 0.0499096
0.06354026 0.04824193 -0.07228257 -0.07230547 -0.045524642 0.060135532 0.011365251 0.019013517
-0.09933375 -0.11028985 -0.1363211 -0.004806091 -0.09927107 -0.014426497 -0.22059837 -0.16107713
0.025430502 -0.095021434 -0.35219106 -0.13243036 -0.15424752 0.027324002 0.079745114 -0.10374479
-0.16526699 -0.019170707 -0.18568465 -0.24715948 -0.12119937 -0.069546886 -0.064578734 0.054391522
-0.34712377 -0.014332613 -0.1728051 -0.0849981 -0.072006635 -0.19551966 -0.15327205 -0.05396922
-0.07180399 -0.17493068 -0.11655671 -0.008776734 -0.17570136 -0.06589253 0.04275498 -0.04109575
-0.103208385 0.024946565 -0.22529627 -0.42862108 0.08679855 -0.11130353 -0.10679873 -0.025982514
-0.08544272 -0.014685186 -0.28131655 0.04263941 0.06360675 -0.17278531 -0.3140425 -0.10499757
-0.15770681 -0.11226718 0.04569659 -0.066672675 -0.15977405 -0.27204636 -0.16549239 -0.044670474

lstm_layer.bias_hh_l0 f4 [256]
00000000: 53b3 31be 9477 9f3d c10b 0fbe 1ecc 373d
00000010: 77b8 edbd 1d29 5bbd 20c6 1dbe 1fe6 1ebe
00000020: 810e 033d 97f9 683c bc58 e0be b7d2 04bd
00000030: 6707 c7bd cf00 5abd 9d90 bb3b fe8c b6bd
00000040: c847 1bbe 0576 70be 185b b8be be7a 1cbe
00000050: ec25 a2bd f001 83bd 9da7 483d cc29 31be
00000060: a974 a4be 22a9 50be b76a 44bd bae3 76be
00000070: 15d0 f3bd ca6f 41be c74a 5a3c d532 5d3d
00000080: 65d2 23bd 10ca 67bd 59f4 b43d 8bf4 efbd
00000090: 1bae b6be f674 e7bd 869c 2bbe d2cb f6bd
000000a0: 1f4e aebd eb89 383c 4b0e 27be 14ad ecbe
000000b0: 73c0 b5bd a601 21be d861 cb3b 5b54 ae39
000000c0: b684 a9bd bc97 d9bd 8c0b 4cbe bae7 6abd
000000d0: 5604 8bbd a2b8 1cbe 977d a7be c398 e6bd
000000e0: 2c83 e9bd 431a 1fbd 5cde 92bd 7a69 b13d
000000f0: 61b9 abbd 3191 11be c98a e1bb 1f02 0f3c
00000100: d45e 7e3c 5f27 1ebd 439f 36be a752 07be
00000110: f72b bbbd 8699 543e 38be a5bd fe7c 40bd
00000120: 0d19 8ebd 759c aebd 8df9 37be 524a 03bc
00000130: 2e8a f9bd 5493 9abd 37f7 683d d643 24bd
00000140: 65ca 3abd 3ace 14be cb19 2dbe f33f 12be
00000150: 7704 1fbe bd22 223d 6966 48ba 4689 893d
00000160: 1f41 27be 860f 4f3d 32ea b13d 6ae2 5dbe
00000170: 1c6b 57be 508d afbd 02ae 84bd 993d 75bc
00000180: 0895 c1bd a7ae 18be 536d 8bbc 92f5 53bc
00000190: 06ad 263e b8b7 863c 77cf 9c3d d9eb 1a3d
000001a0: 99d9 e5bc f435 833d 10ea 0ebe 83b1 ff3d
000001b0: b943 bcbd cb84 e1bd 0a68 ff3c e89b e1bc
000001c0: ad9e 23bc b446 18bb 928b 43be 11f1 40bd
000001d0: 0b55 0dbe 8222 c03d dd9f e53a 5d51 c43d
000001e0: f1a1 35bd 031c 2bbc 10a3 f8bd 7f85 2cbd
000001f0: 738a b2bd 0447 4dbe aaed 96bc ff2b 16be
00000200: fd83 a23d c820 d93c 0997 e43b e45c b93b
00000210: 0bde 1e3c 25c0 893d a50f 213c aff3 e1bd
00000220: 087d 843d 44a3 e83c 3316 da3d 4029 8d3d
00000230: 9c1b a43d 7202 a73d c367 cfbd 494c d63d
00000240: ed0f 38bd 0262 933d 33cb e33c a828 05bd
00000250: ceab cabc 500e 393d 2583 8f3d 643b ec3b
00000260: 0fff a63b 422a 2dbd d308 3b3c a6fd 13bd
00000270: 031d 373c ae1b e6bc a7f2 d43d fc66 d4bd
00000280: e0b5 b4bd 347f fd3c c4c2 c03d 24c7 af3a
00000290: 796e 61bc 592e 9fbd 0d93 90bd e896 743d
000002a0: d825 69bd b0aa 28bd aa33 713d 4895 523d
000002b0: 0abe 3bbd 1907 ce3d 2f88 52bd 4311 d739
000002c0: e3d6 e9bd fec5 9abd 7b3f f53d 2df9 703d
000002d0: a9aa 13bc 7302 b23d 033b aa3d 1ac8 263d
000002e0: c3ae d03d 5025 a03d 5ac0 923d 94cc bebd
000002f0: 2db6 a3bd d519 88bd 9c6d 553d 3517 803d
00000300: 843a 95be 252c dc3d db5f 3ebe 02b6 9fbd
00000310: f96b 1a3a 8439 1ebd 1c86 debb 0823 293d
00000320: 77da d5bc d8e0 bebd 3eb2 d7be 17e2 7a3d
00000330: 983e 45be ef61 abbc fe22 c13c 43b7 8ebc
00000340: c9d3 1dbe ac63 3bbd 58a4 69be 0943 7fbe
00000350: ff7c b7bc 5672 87bd cc77 59bc b6e8 793d
00000360: f814 c8be 09e8 b0bc 48d5 22bd 9aeb 61be
00000370: 8f02 ca3c a3f4 27bc 4176 03be b3e5 a03d
00000380: d56f e5bd 5e25 7abe 08ff 273d 86f5 0dbe
00000390: d0be c2be 6783 3ebe 0b78 b1bc 3864 ecb9
000003a0: 4078 32bb 3a87 693c 3b36 aabd a2d5 eebe
000003b0: 5af3 89bd 13d3 34bd 5de2 2abd b07b 783b
000003c0: 3090 8abd bf9c 233c 3758 9abe 4ed3 58bd
000003d0: 28bf ca3c c86c 11bd cb52 a6be 5703 cdbd
000003e0: c3c7 92bc 9b01 433d ea8c c7bd 2d4c 02bc
000003f0: a6b9 193d 2e52 aebe 6564 14be 1909 16be
-0.17353563 0.077864796 -0.13969328 0.044872396 -0.116074495 -0.053506006 -0.1540761 -0.15517472
0.031996254 0.014219663 -0.438177 -0.032427516 -0.09718209 -0.053223427 0.0057240264 -0.08913611
-0.15164101 -0.23482521 -0.36007 -0.15281197 -0.07917389 -0.06396854 0.048987973 -0.173011
-0.32120255 -0.20377019 -0.047953334 -0.24110308 -0.11904923 -0.188903 0.013323492 0.054003555
-0.03999557 -0.056589186 0.08835668 -0.11716565 -0.35679707 -0.113016054 -0.16758928 -0.120505944
-0.08510994 0.011263351 -0.16314046 -0.46225798 -0.088745974 -0.15723285 0.0062067322 0.00033250716
-0.08277266 -0.10624644 -0.1992628 -0.057349898 -0.067879364 -0.15304807 -0.32713005 -0.11259606
-0.11401972 -0.038843405 -0.07171318 0.08662696 -0.083849676 -0.14215542 -0.0068829996 0.008728533
0.0155255385 -0.038611766 -0.17834191 -0.13215123 -0.09139245 0.2076169 -0.08092922 -0.0469942
-0.06938372 -0.085259356 -0.1796629 -0.008013325 -0.12184559 -0.07547632 0.056876387 -0.040103756
-0.045603175 -0.14531794 -0.1690437 -0.14282207 -0.15529047 0.03958391 -0.0007644655 0.06715636
-0.16333435 0.050551914 0.08687247 -0.21668401 -0.21036953 -0.08571875 -0.06478502 -0.014968299
-0.094522536 -0.14910375 -0.017019903 -0.0129369665 0.1627694 0.016445026 0.07656758 0.037822578
-0.02805786 0.06406775 -0.13956475 0.124850295 -0.091926046 -0.110116564 0.03117754 -0.027540162
-0.009986562 -0.0023235502 -0.1909621 -0.0471049 -0.13801973 0.09381582 0.0017518956 0.09585831
-0.044343892 -0.01044369 -0.12140477 -0.0421195 -0.08717813 -0.20046622 -0.018423874 -0.1466522
0.07935331 0.02650489 0.0069760126 0.0056568254 0.009696494 0.06726102 0.00983039 -0.11032807
0.0646916 0.028398164 0.106487654 0.068926334 0.080130786 0.08154763 -0.10127213 0.10463769
-0.044937063 0.07196428 0.027806854 -0.032509476 -0.024740126 0.045179665 0.07007436 0.0072092284
0.0050963233 -0.04227663 0.011415678 -0.03613057 0.0111763505 -0.02808937 0.10397845 -0.10371205
-0.088237524 0.030944444 0.094121486 0.0013410789 -0.013759249 -0.07772512 -0.07059298 0.059714228
-0.056920856 -0.041178405 0.05888716 0.051411897 -0.045835532 0.100599475 -0.051399406 0.00041020857
-0.114179395 -0.07557295 0.119749986 0.058831383 -0.0090128565 0.086918734 0.08312037 0.040718175
0.10189583 0.07819617 0.071655944 -0.09316364 -0.07993732 -0.06645552 0.052106485 0.062544264
-0.29146206 0.107506074 -0.18591253 -0.07798387 0.0005890723 -0.03862907 -0.0067908894 0.041293174
-0.026105149 -0.09320229 -0.42128175 0.061250772 -0.19262159 -0.020920722 0.023576256 -0.01742137
-0.15412821 -0.04574935 -0.22816598 -0.24927916 -0.02239847 -0.06613605 -0.013273191 0.061012946
-0.39078498 -0.021595018 -0.039754182 -0.22062531 0.024659423 -0.010251197 -0.12838079 0.07856312
-0.11202971 -0.24428317 0.0410147 -0.13863191 -0.38036203 -0.18604814 -0.021663686 -0.00045088097
-0.002723232 0.014253432 -0.08311125 -0.46647364 -0.06735869 -0.04414661 -0.041719783 0.003791552
-0.06765783 0.009986102 -0.30145428 -0.05293589 0.024749354 -0.035504133 -0.3248504 -0.10010403
-0.01791752 0.047608953 -0.09743674 -0.007952732 0.037530564 -0.34047073 -0.14491422 -0.14651908

attn_linear.weight f4 [1, 137]
00000000: ead6 2a3d d876 81b8 2d9d 953b 0abb 6ebd
00000010: 53a6 dcbc 6451 6b3d 21d5 92bd 65e3 04bd
00000020: ee53 83bd 3830 413d 5c37 7c3c b35c 2cbc
00000030: 711a eebc 2bd5 ddbc 2caa 883c ea00 a33d
00000040: 3463 95bd b6ca 64bd baca 14ba 2904 9f3b
00000050: b836 bdbc 7318 673d 7bb5 aabd da2a 873d
00000060: f2d4 9fbd 31d9 1e3c 2909 46bd 5665 3abb
00000070: 5ca5 d5ba 5030 e2bc f1a3 b13c 1d79 adbd
00000080: 79d0 9fbd ffc7 713d faf1 f63b f5f8 263d
00000090: a0d2 313d c30b 93bc 3908 433c 403f 483d
000000a0: 8e54 443c 1ea9 36bd 29fa 8f3d 3c51 85bc
000000b0: dfd4 b8bc 1e96 023c de57 1fbc e57f 843d
000000c0: 50dc f3bc 6986 a43d 386b 263d 593b 57bd
000000d0: aa84 223d b0f3 063d 02d9 b8bc 2a5b 303d
000000e0: 27ab be3c 02f8 ab3d 3b9f 493d 5caf 983d
000000f0: 1f22 88bd 5396 873c bf94 03bd f4eb 503d
00000100: fe8e 933d a4dd 66bd 7501 8c3d 4764 963d
00000110: 1060 7b3d 1241 9f3c c09d a53d a145 af3b
00000120: 19db 4bbd d5cb 1abd 4bd1 9e3d 2117 c8bb
00000130: 90b7 733d 289e 8b3c e26e 8cbd a137 ed3c
00000140: b530 de3c b94a f73c e95e a2bc 3d02 13bc
00000150: 3f81 393d 1db8 40bd 2338 863d 2c90 3abc
00000160: 8486 32bc 1de1 84bd d86f a83d 9773 90bd
00000170: 34f2 6bbb 2f45 47bd 0809 e13c ef50 2c3d
00000180: 0c51 11bd 502c 8d3d 38ba 683d 1c4e 6f3d
00000190: b9a3 0e3d 2fa5 4bbd eb26 133d c356 23ba
000001a0: d2aa 433d fcbf a8bd 6642 5c3d 5762 82bd
000001b0: e899 27bc d378 5d3d 583e 743d 0a4c 393d
000001c0: 216a 51bc a74c 99bc 5da6 a13d d325 0e3d
000001d0: 3232 963c e71f bfbc c273 55bd 2a2e 953d
000001e0: 57d9 913d 45fd 83bc 5756 1ebc cbf6 2bbd
000001f0: d235 a2bd 13b9 1abd e1df 4d3d 9d70 853d
00000200: da9a 19bd 5dbb 663a ad87 bb3c e59f 2fbd
00000210: 5e06 37bd 23e7 ee3b 9e97 ae3c 9e24 943d
00000220: 478f 05bd
0.041708864 -6.173336e-05 0.004565856 -0.058283843 -0.026934778 0.057450667 -0.07169557 -0.032443423
-0.06412493 0.047165126 0.015394058 -0.010520148 -0.029065343 -0.027079185 0.016682707 0.07959159
-0.07294312 -0.055857383 -0.00056759606 0.004852791 -0.023097381 0.0564198 -0.08335396 0.0659997
-0.07804288 0.009695337 -0.04834858 -0.0028441749 -0.0016299891 -0.027610928 0.021684619 -0.08470366
-0.07803435 0.05902862 0.00753617 0.040764768 0.04341376 -0.017949944 0.011903816 0.048888445
0.01198305 -0.044594876 0.07030136 -0.016274087 -0.022562442 0.007970361 -0.009725539 0.064697064
-0.02976814 0.08033449 0.040629596 -0.052546833 0.0396773 0.032947242 -0.022564415 0.04305569
0.023274971 0.08396913 0.04922412 0.07455322 -0.06647133 0.016551172 -0.032124277 0.051006272
0.07205008 -0.056363717 0.068362154 0.07343345 0.06137091 0.019440208 0.08086729 0.0053488766
-0.049769495 -0.037792046 0.07754763 -0.006106273 0.05950123 0.017043188 -0.06857087 0.02895719
0.027122835 0.030186998 -0.019820647 -0.008972702 0.045289274 -0.047050584 0.06553676 -0.011386912
-0.010896329 -0.064882495 0.082244575 -0.07053297 -0.0036002519 -0.048649963 0.027470127 0.04206937
-0.035477683 0.068932176 0.056818217 0.0584241 0.034824107 -0.04971808 0.035925787 -0.0006230885
0.04777033 -0.08239743 0.05377426 -0.06366413 -0.010229565 0.054070305 0.059629768 0.045238532
-0.012781651 -0.018713308 0.078930594 0.03470404 0.018334482 -0.023330642 -0.05211235 0.07284196
0.071215324 -0.01611198 -0.00966414 -0.041983407 -0.07920422 -0.037774157 0.050262336 0.0651562
-0.037501194 0.0008801723 0.022891844 -0.042877097 -0.044683807 0.0072907372 0.021312531 0.07233547
-0.032607343
