darnn3++/finished/decoder.pth (torch_old, 120898 bytes, 9 tensors)

attn_layer.0.weight f4 [64, 192]
00000000: 4c2e ffbc f05a b1bd 7ef5 c8bd 90fc 9abd
00000010: 7250 97bb b736 bcbd 509f 08bd 200c 713d
00000020: 0056 e73d 50a6 c23d 34b2 3cbd 9b9c e73d
00000030: e041 8bbc 7009 b43b f1c6 fdbc 4f72 f1bd
00000040: 26ef 0abb 6f26 c13c 0cd5 c03d 6471 033e
00000050: dc63 e03c 1dba 9ebc 8528 48bd e057 32bd
00000060: 1abb dd3d 2ff7 0d3d 72d9 8a3c efe6 d4bd
00000070: 6976 cdbc d769 843c c669 fc3c 7ca9 313d
00000080: 1eb3 343c ccbb ddbc a0e8 38bd ff17 8c3d
00000090: 2d06 b43d cb9c 19bd 22f4 a3bc d721 39bd
000000a0: 10e9 dfbd fbdd 92bd 2cab 0cbc aef3 27bc
000000b0: ca3c 32bb e940 09bd 9f73 153d 5149 84bc
000000c0: a2bb 2ebc aeae 37bd febd fbbb cfcf dfbc
000000d0: 79a2 373d 9b9d 6e3c 25dc 103e 686f a1bd
000000e0: 1b34 67bd 1f14 03be 569c 9d3d a2ca ca3d
000000f0: ec26 8ebb 3f57 373a 7f27 1b3d 837d 87bd
00000100: 98cb 2bbd 8552 b2bc 71df 0cbe 0206 a43b
00000110: 3d08 293d 9575 51bd 9989 6a3d 0675 b33d
00000120: 411b f13b 85c9 863b e265 a7bd 589a 8f3d
00000130: 406c a3bd 669c 81bd 024c 45bd 239b bbbd
00000140: 8670 f53c 4c04 0bbc e7cf d8bc c519 853d
00000150: 4f71 f43d ef67 9fbd 0c46 b13b eed5 54bd
00000160: 2980 133e 3eef 9dbc ef42 933d 1c34 84bd
00000170: 0789 d43d 8997 ad3d 89d0 d5bd 8cab 423d
00000180: 8221 f23d a0ae 2cbd bc18 42bc 7601 123d
00000190: 9a79 c5bc 434d bcbc 0492 9b3d ee36 2ebd
000001a0: aad0 bdbb 1129 313d cc18 453d 6295 2a3d
000001b0: 3528 973d fbe4 2abd 51b6 b3bc 9821 d4bc
000001c0: 26e4 133d 14a5 a23d dae4 7fbd 8736 3d3d
000001d0: 0777 bc3d 5505 2a3d e594 073d 92b3 ebbd
000001e0: a31b 87bc 93c8 6cbd 59ee 263d c5da 803d
000001f0: 6b67 cebd 2396 253d 8d0f 2ebd 58de cbbd
00000200: 2b4c 0e3f 75b4 8bbe 0ead 59be f97e 593e
00000210: 8a34 bd3e 2e2b 4ebe cd0f ce3e 4d7a 013e
00000220: 4a7d 7b3d cfaa 4a3e 4672 d5bd 8868 3bbe
00000230: 8285 dbbd 8f24 50be 5ec2 01be 4527 3ebe
00000240: 45e3 40be 233c 033e 8015 8ebe 7df7 c4bd
00000250: 4ed6 503e 6d4c 143e 6778 773e 7b0b 03bf
00000260: ef02 1abf d86c c9bd 71af 61bd ad47 ab3e
00000270: 96a1 a7be ac14 e9be ffdb 3dbe 444f 783d
00000280: 2c6e 113e b4b7 063e 866e a1bd 79d4 893e
00000290: f764 8f3e 8bfc 7abe 041e 41be d8a7 933e
000002a0: 3bff 7b3e a5c0 d73d 8432 19bd b962 973e
000002b0: 3128 e03e 4e18 463e 9c90 a13e c2f6 423e
000002c0: ffe3 b73b 142d 543d 3ea1 543e d44f 273e
000002d0: a959 83be 44b5 033e dcd0 783d 3a3f b33d
000002e0: cbd7 b1be 1bbf 473e 3c3f 95bd 77a5 3e3b
000002f0: 6a23 0bbf 357c 233e e561 b9bc d175 aabe
00000300: f949 22bd 24a1 dcbc 444b bf3d c701 853d
00000310: 5870 c03a 5372 dabb c323 063d fc35 0c3d
00000320: 48dd 64bd eaea 8c3c 720d ca3d 7bd3 f13c
00000330: 3faf 943d ca91 1f3d 165e d8bc b900 f53d
00000340: 62eb dd3d 6ffc b2bd d6fd 0cbd 7012 8cbd
00000350: f391 a5bd a5f2 e2bc e248 a93b 91b6 22bc
00000360: 1f25 ebbc 90ef c13c cb25 fc3c 5ec6 a43d
00000370: 43cb 73bd 63c6 aabd 67dd a93c 9a1a e1bc
00000380: 27d0 d9bd b852 18bb 6579 b13d f155 b43c
00000390: b36f d63c 071f 9f3d d8a1 83bd b034 513c
000003a0: 1e02 6c3d 2141 263d 6935 c839 d105 0d3d
000003b0: f853 8dbd d22c c93d 4378 1cbd 2289 0a3d
000003c0: 287c 97bc 2d33 f0bb 4d66 d73c bf58 82bd
000003d0: 5ee8 ccbc b5a6 c13b 2d71 f6bd 5656 cc3d
000003e0: 150a 54bc d77d fb3d dfd6 723c 7d32 17bd
000003f0: 8918 aa3d d6e3 dbbb 752f 54bd 40cd b23d
-0.031150006 -0.08659923 -0.09812449 -0.07567704 -0.004617744 -0.091901235 -0.033355057 0.058849454
0.112957 0.09504378 -0.046068385 0.11309167 -0.016999185 0.005494289 -0.030978652 -0.11789381
-0.0021199672 0.023577897 0.094156355 0.12836224 0.027391367 -0.019375855 -0.048866767 -0.043540835
0.108267024 0.03465956 0.01694939 -0.103956096 -0.025080876 0.01616375 0.030812155 0.043374524
0.011029033 -0.027067088 -0.045143723 0.068405144 0.087902404 -0.037503045 -0.020013873 -0.045198288
-0.10933125 -0.07171246 -0.008585732 -0.010250969 -0.0027196878 -0.03350917 0.036487218 -0.016148241
-0.010664852 -0.044844322 -0.007682561 -0.02732077 0.04483268 0.014563943 0.14146478 -0.07882577
-0.056446176 -0.12800644 0.07695834 0.099019304 -0.004338136 0.00069938967 0.037879463 -0.06615736
-0.04194221 -0.021767864 -0.13757111 0.005005599 0.041267622 -0.051137526 0.05726013 0.08762555
0.0073579852 0.0041133785 -0.081737295 0.070118606 -0.079796314 -0.06328659 -0.04816819 -0.09160449
0.029960882 -0.008484911 -0.026466323 0.06499056 0.119356744 -0.07783496 0.0054099616 -0.05196183
0.14404358 -0.019279119 0.07190501 -0.064552516 0.103776984 0.08476169 -0.104401655 0.04752688
0.11822797 -0.042158723 -0.011846717 0.035645925 -0.024105836 -0.02298606 0.0759621 -0.042532854
-0.005792697 0.043252055 0.04811935 0.04164637 0.07380716 -0.04172228 -0.021937521 -0.025894925
0.03610625 0.079416424 -0.06247411 0.04619458 0.0920239 0.04150899 0.03310098 -0.1150886
-0.01649267 -0.05780847 0.04075465 0.06291727 -0.10078319 0.040426385 -0.0424953 -0.09954518
0.55584973 -0.27286115 -0.21257421 0.21239842 0.36954147 -0.20133659 0.4024643 0.1264431
0.06139878 0.19791721 -0.104221866 -0.18301594 -0.10718824 -0.20326446 -0.12671801 -0.18569668
-0.18836696 0.12815909 -0.27750778 -0.09617517 0.20394251 0.14482279 0.24167024 -0.5118939
-0.60160726 -0.098352134 -0.055098955 0.33453122 -0.32740468 -0.45523584 -0.18540953 0.06062247
0.14202183 0.13156015 -0.07882409 0.26919916 0.28006718 -0.245104 -0.18859106 0.28838992
0.24609081 0.10534791 -0.03740169 0.29567507 0.43780664 0.19345209 0.3155564 0.19039443
0.005611896 0.051800802 0.20764634 0.16339046 -0.25654343 0.12862116 0.06074606 0.08752294
-0.3473495 0.19506495 -0.072874516 0.0029090324 -0.5435091 0.1596535 -0.022629688 -0.33293012
-0.039621327 -0.026932307 0.09340528 0.064944796 0.0014681919 -0.0066664605 0.03274895 0.03423117
-0.055875093 0.01720186 0.09865846 0.029519787 0.07259988 0.038957395 -0.026412051 0.119630285
0.10835911 -0.08739554 -0.034421764 -0.06839454 -0.08084478 -0.027703593 0.005166159 -0.009931223
-0.028704224 0.023673803 0.03077974 0.08045648 -0.059520017 -0.083386205 0.020735456 -0.027478505
-0.10635405 -0.0023242664 0.08665732 0.022013636 0.02617631 0.0776959 -0.064273536 0.012768909
0.057619207 0.040589456 0.00038186766 0.034429375 -0.069007814 0.09823002 -0.038200628 0.033822186
-0.01849182 -0.0073303194 0.026293898 -0.06364583 -0.025013145 0.0059097656 -0.12033305 0.09977405
-0.012941857 0.122798614 0.014821737 -0.036913384 0.08305461 -0.00671051 -0.05180307 0.087305546

attn_layer.0.bias f4 [64]
00000000: def4 9ebc 0a33 39bd e250 d5bc 3ca9 3bbc
00000010: b1cb b83d 1e09 6c3d a137 c1bc 0825 983d
00000020: a9b8 a1bd b8a6 24bd fb03 d9bc 263e 733d
00000030: adc5 77bd 3a42 ba3c c9a8 8f3d b926 a23c
00000040: 4628 2e3b 3055 223d 4373 4dbd dab4 0cbc
00000050: c530 5f3d 7f76 bd3d 8480 ddbb c6a4 cabc
00000060: 0e27 893c b4d5 f63c f2ed 22bd 54e2 803d
00000070: 58ac 203d b6fd efbc 53d6 293c 97dc 733d
00000080: 3ee3 063b fca0 ba3b 8fe7 6cbd 90d5 0b3d
00000090: ef3e 003d 1382 183d b4ac 1bbd 681e f23c
000000a0: 2352 54bd 9112 f9bc 78cc 323d 935f babd
000000b0: 83f9 23bd 44f9 1f3c 431d 1cbd ce31 6ebd
000000c0: 3ed3 f7bc 4d6d 863d 8c2d 9d3b 3eb9 2fbd
000000d0: 35db 8bba df97 eb3c 8006 1e3a 988f 93bd
000000e0: 6575 8dbb c87d b5bd e479 21bc e9ff 1d3d
000000f0: cf9e 8cbc 6df2 263d 961d a0bc 72e3 62ba
-0.019403871 -0.04521469 -0.026039544 -0.011453923 0.09023226 0.057625882 -0.023586096 0.07428938
-0.07896549 -0.040198058 -0.026491156 0.05938544 -0.060491253 0.022736657 0.07014615 0.019793855
0.0026574298 0.039632022 -0.05015875 -0.00858804 0.05448987 0.09251117 -0.006759705 -0.024736773
0.016742256 0.030131198 -0.039777704 0.06293169 0.03922686 -0.029295783 0.01036604 0.059536543
0.0020582224 0.0056954604 -0.05783802 0.034139216 0.03131002 0.037233423 -0.0380065 0.029555514
-0.051836144 -0.030404361 0.043652028 -0.091002606 -0.040032875 0.009764019 -0.038113844 -0.058152966
-0.030252095 0.06563816 0.0047966894 -0.04290127 -0.0010670187 0.028758941 0.000602819 -0.07205123
-0.004316973 -0.088618815 -0.009855721 0.038574133 -0.01716557 0.04075854 -0.019545358 -0.0008655108

attn_layer.2.weight f4 [1, 64]
00000000: d3fa 91be 71c8 923e 753c 9c3e 0eff a93e
00000010: 07d5 9abe 5c5b 9ebe 38bb c03e ca8d c63e
00000020: 124e b13e 5f7b 87be 50f4 a3be d235 cbbe
00000030: 7cf7 863e 7475 b23e 8a7e bbbe b633 b43e
00000040: 3e0d aabe 04aa c1be a85a acbe 4886 a83e
00000050: 1cdc a5be bd5d 8ebe f75a 9dbe 7143 b6be
00000060: d496 973e a33d 943e f747 b1be 3b05 a1be
00000070: b7b0 b0be 81f3 c03e 337d a63e 1fae 87be
00000080: c91f b7be 61dc 9e3e c5a2 9a3e 8a9a a73e
00000090: a994 8bbe 781b 903e 76cc 8f3e 73f0 a6be
000000a0: a24c a8be 18e4 993e 3bbd a93e 64cf 8e3e
000000b0: d1ea 953e ee19 943e 2cfd b83e 52f2 a53e
000000c0: 3b86 b93e 1031 91be 7e9c 993e 2e3a 90be
000000d0: 83bf b4be f80d 99be 489f a7be 5882 a43e
000000e0: 5c90 b23e deeb a03e 2ed8 b4be fdbd acbe
000000f0: 68ed b9be 15c9 b4be 5ec1 bebe d8e0 b9be
-0.28511676 0.2866855 0.30514875 0.33202404 -0.30240652 -0.30929077 0.37642837 0.3878005
0.34629875 -0.26461312 -0.32022333 -0.396895 0.2636069 0.34855235 -0.3661998 0.35195702
-0.33213228 -0.37825024 -0.33662915 0.32914948 -0.32394493 -0.27805892 -0.30733463 -0.3559833
0.2960726 0.28953275 -0.34625217 -0.31449303 -0.34509823 0.3768578 0.32517394 -0.2650003
-0.35766438 0.3102751 0.30202308 0.3273509 -0.27261856 0.28145957 0.2808568 -0.32605323
-0.32870966 0.30056834 0.33152184 0.278926 0.29280713 0.28926033 0.36130655 0.32411438
0.36235222 -0.28357744 0.30002207 -0.28169388 -0.35302362 -0.2989347 -0.3273871 0.32130694
0.34875762 0.31429952 -0.35321182 -0.337387 -0.3631394 -0.35309663 -0.37256902 -0.36304355

lstm_layer.weight_ih_l0 f4 [256, 1]
00000000: a90b f2bd c944 3fbe 13ad 1b3e a021 2d3c
00000010: a793 db3c d257 603d cd9a 5e3c 71bc d1bd
00000020: 5097 e4bd 7a73 953c 2342 87bd 3f61 543e
00000030: b52b 84bc 2fe9 d43d 4e10 35be 9824 b73d
00000040: 3084 65be ced1 3bbe ab1c 06be 3c9b 8a3d
00000050: 6b0f 483e 9519 6c3d bbc7 d8bc 63d7 b03d
00000060: 910f 0a3d f066 0bbe 3d5e 873d 1e8a 37be
00000070: 0806 82bd c568 eabd daac 45be eafd 32bd
00000080: 9cc0 1a3d 9c99 833d be5a 9dbd c1dd 1d3e
00000090: 2bdd a6bd fee2 70be 5306 82bd 67c5 1ebc
000000a0: 38ae 96bd c13a 9fbd 9203 193d aa4e d8bd
000000b0: cec0 8f3c 6bd9 51bc ad78 153e 6f18 a9bc
000000c0: 8867 1a3c b047 7fbd c386 0bbd 099f 0fbe
000000d0: 9012 50be 457c 67be faa9 10bc 0d60 92bc
000000e0: 226f 50bd 0044 0e3e fe7e 643d f96f 8d3d
000000f0: 110b 373e 2ea5 24bd 5dcb 8bbd 8fb6 453c
00000100: cb81 31be 911e 01be 0a98 283e f31a 19bd
00000110: b4ed 603d 57c4 9ebc c8c1 1a3d f9c5 bbbd
00000120: 9a65 f7bd c4e0 10be 9298 1fbe c6df b03d
00000130: dfd9 1c3e c82c 133e 0d5d 0bbe 6bae 5a3e
00000140: 0039 73be e2e7 6abe 107c 23be 8f5e e73d
00000150: 4071 283e 7c62 cebd 8687 bf3d ea8f 94bc
00000160: 1781 cb3d 79b8 5bbe ec39 13be 0da4 b8bd
00000170: fdf7 12be 251a f6bd d012 12be 4323 e2bd
00000180: 45ba 463e 1ef4 273d 07ac 963c 944c 343e
00000190: e473 a1bc bbc3 58be 9927 20bd 5b2d 5a3d
000001a0: 8b3e d6bd 70f2 37be b974 273e b82d 24be
000001b0: 6a5d 083e 506b 063d 0ca9 243e e124 023e
000001c0: 92d9 b23b 7464 09be fbb5 83be 01e8 45be
000001d0: 5321 61bd 1e18 b6bd 6b68 1f3e e78c 96bd
000001e0: b52d 073d 6cdb 563d 6fba 403e 3a64 383e
000001f0: 7604 403c e701 42bd 9f26 5fbe 4c00 303e
00000200: 06e9 87be 3cb2 893e a256 1bbe 3a29 513e
00000210: b098 883e 708b 0cbd c932 e93d 2a9e 36be
00000220: 0ebc 1ebd bb10 db3c 3e59 f93d a51c 1c3e
00000230: 19e2 eebd 3b73 6ebe 79c2 f13d 5ad2 49be
00000240: 7255 263b 69d5 f3bd cd31 94bd a03c 583e
00000250: 0d12 503e f153 0d3e 52be 99be a61d 583e
00000260: c1fa 923e 2771 5bbe d1a4 8abe 56f0 5a3d
00000270: 9b67 32bd e16c 36be e8a4 613e 373e 6ebe
00000280: 4aec 063e 39ad 28be cb34 423e 2493 bb3d
00000290: d421 5ebe 0d24 ff3d 17dd 46be d06f 34be
000002a0: 1726 8f3e 9ff3 bb3d a6ea f53d 7800 18be
000002b0: 0586 fabd d559 b3be d1a2 d6bd 3d85 2dbe
000002c0: cd93 8abe 98ad 8fbe 0e04 6d3e fbc8 3ebe
000002d0: d8a1 b5bd 55ad e13d 80c1 753e 7250 113e
000002e0: b946 3e3e eed8 4bbd 676d 4b3e 988f 463e
000002f0: 3adc 71be c8a0 8ebe ad66 6bbe b6b8 1dbe
00000300: a1c6 b73c 270b 61be b238 7a3e 34e0 8abd
00000310: 17d0 c73d 661e 803d 7592 bdbd 3d0f bcbd
00000320: a594 20be f4e5 3bbe fbe9 5bbe bd80 493e
00000330: 4c1c 823d 219e 02bc 85f2 5dbe bda8 353e
00000340: 16ae 26be d16a 92be 8035 12be 9a4e 683d
00000350: 418c 123d 3751 1dbd 572b 093e d815 6f3d
00000360: 1906 af3d 2a1c 43be 674c 183c db9f 4dbd
00000370: 8e34 80be a1ce 55be 1f6d 2cbe 94b4 13be
00000380: 1c10 f73d ad50 efbc 23ce 33be 00c7 a93d
00000390: ff7e 0cbe 9930 abbd 9615 693d 5a02 073e
000003a0: 63db 89bd 1440 d4bd 2cbb 193e fd72 10bd
000003b0: a2c7 0f3d 38c9 a83c 280c 1e3e 6eb9 553d
000003c0: 4234 fa3d 6174 a13c 9143 fabd c9b7 5ebe
000003d0: 382d e6bd 8154 a7be a2fa c33d a7ff 4cbe
000003e0: 93a8 10bc f9b2 803e 83e5 e53d bf89 d03d
000003f0: 9f35 1b3e 837d a4bd 6bb1 d9bd b8cf 1a3e
-0.1181863 -0.18678583 0.15202741 0.010567099 0.026803805 0.054771252 0.013586712 -0.102410205
-0.11161673 0.01824354 -0.066044115 0.20740221 -0.016134122 0.10396039 -0.17682001 0.089425266
-0.22413707 -0.18341753 -0.13096873 0.0676789 0.19537131 0.057641584 -0.026462426 0.08634832
0.03370625 -0.13613486 0.066097714 -0.17923781 -0.063488066 -0.114457645 -0.19304219 -0.043699183
0.037781343 0.06425783 -0.07683323 0.15416624 -0.08147653 -0.2352409 -0.063488625 -0.009690619
-0.07357448 -0.07774878 0.03735692 -0.10561879 0.017547991 -0.012808184 0.14596815 -0.020641534
0.009424098 -0.062324226 -0.034064066 -0.14025511 -0.20319581 -0.22605999 -0.008829588 -0.017868066
-0.050887235 0.13893127 0.05578517 0.06906123 0.17875315 -0.04019659 -0.06825898 0.012067451
-0.17334668 -0.12609316 0.16464248 -0.037379216 0.05491419 -0.019380732 0.03778246 -0.0916862
-0.12079926 -0.14148241 -0.15585545 0.086364314 0.15317486 0.14372551 -0.13609715 0.21355598
-0.23752213 -0.22940019 -0.15965295 0.112973325 0.16449451 -0.10077378 0.09352021 -0.01813503
0.09936731 -0.2145709 -0.14377564 -0.09015665 -0.14352413 -0.120167054 -0.14264989 -0.11041882
0.19406994 0.041004293 0.018392576 0.17607337 -0.019708581 -0.21168415 -0.039100263 0.05326591
-0.10461148 -0.17963576 0.1635312 -0.16033065 0.13316885 0.032817185 0.16080111 0.1270938
0.0054580653 -0.13417226 -0.25724778 -0.19326784 -0.05496342 -0.08891319 0.15567176 -0.07351094
0.033002574 0.05245535 0.18821119 0.18006983 0.011719814 -0.047365095 -0.21792077 0.17187613
-0.2654497 0.26893795 -0.15169767 0.20425883 0.2667899 -0.034312665 0.113866396 -0.17833772
-0.03875356 0.026741376 0.12175225 0.15245302 -0.116642185 -0.23286144 0.11804671 -0.19709149
0.002538052 -0.11905939 -0.07236061 0.21116877 0.20319386 0.13801552 -0.30028015 0.2110506
0.28706935 -0.21429883 -0.2707887 0.05345186 -0.043555837 -0.17814972 0.22035563 -0.2326592
0.13176075 -0.16472329 0.18965451 0.09158924 -0.21692592 0.12458048 -0.19420277 -0.17620778
0.27958748 0.091773264 0.12007646 -0.14843929 -0.122325934 -0.35029474 -0.104802735 -0.16945358
-0.27065888 -0.2806213 0.23146078 -0.18631355 -0.0886876 0.110193886 0.23999596 0.14190844
0.18581666 -0.049767427 0.19865952 0.19390714 -0.23619166 -0.2785704 -0.22988386 -0.15402493
0.02243358 -0.2197691 0.2443569 -0.067810446 0.09756487 0.06255798 -0.0925645 -0.09182594
-0.15681703 -0.18349439 -0.21475975 0.19678016 0.063530535 -0.007972271 -0.21674545 0.1774015
-0.16277346 -0.2859712 -0.14278221 0.056715585 0.035778288 -0.03840753 0.13395439 0.05837044
0.08546085 -0.19053712 0.0092955595 -0.05020128 -0.25040096 -0.20879604 -0.16838501 -0.14424354
0.120636195 -0.029213274 -0.17559104 0.08289909 -0.1372032 -0.08358879 0.05690535 0.13184491
-0.06731298 -0.103637844 0.15012807 -0.03526591 0.035102494 0.020603761 0.15434325 0.052178793
0.12216999 0.019708814 -0.122199185 -0.21749796 -0.112390935 -0.3268166 0.09569289 -0.20019399
-0.008829254 0.25136545 0.112254165 0.10182523 0.15157174 -0.08031752 -0.10629543 0.15118301

lstm_layer.weight_hh_l0 f4 [256, 64]
00000000: aade f5bc 3714 d2bd 3787 2cbe 3133 48bc
00000010: 357f 9bbd cda0 24bd ce27 1c3e b0c2 f63d
00000020: 09db e53c bc68 76bd 8770 ffbd 487d 243e
00000030: 4284 91bc 2761 303d a8d3 16be a54a 29be
00000040: 7381 5b3c 552b 123e 3c8b ec3d 88b0 1bbd
00000050: 89da c03d ace5 b63d cc3d 3e3d b65a 2cbd
00000060: 84d2 45bc d831 e3bc a4de babc 336c 3a3d
00000070: 7190 e43c 979b ec3b abc7 89bd 9954 003e
00000080: ca90 3e3e 7081 803c 95ad c03d 391d 4a3e
00000090: c72c 943d ad47 2abd f9ce dd3c a47f 01be
000000a0: a509 d6bd 9d05 a1bd 1c02 debd 5064 d83d
000000b0: d726 51bd c119 9e3d d0a7 6a3d 402f 17be
000000c0: b417 a6bd d651 f8bc 6257 783d 496a 3e3d
000000d0: 9aaa f93d e6fb 9fbd 8d49 283e 8fca bbbd
000000e0: 3062 d9bc 7bee 18be f9fe c4bb 6b6e 3cbd
000000f0: 8ab5 79bb 9ace 063e 719f f23b 5cae 1ebe
00000100: 6515 63bd 4b3d 9c3d c33d 86bd a92f a53d
00000110: e6e3 a23d d964 1abe f8e0 e43d 90e0 9fbc
00000120: 428d e2bb 2f36 7e3a d359 8ebd bbf1 a5bd
00000130: 7d10 03be d424 c9bd 63b0 35bd f02f 37bd
00000140: 50f7 a03c 1fe9 4a3d 5c78 973d 37aa 91bd
00000150: 2328 223d 4586 31bd b13c 19be dcb6 5dbd
00000160: dd30 123e 4a26 9a3d 698f 743d 9174 25bd
00000170: 02ca 953b 6431 0e3e 119d 14be d606 c63d
00000180: f6bd 163e 4fee 05bd fab2 3c3d bb8a 563e
00000190: 6d39 ca3c acca 64bd 48ab 163d aa61 1bbe
000001a0: 358a 803d f167 ab3d 9f1f cebc 1ce9 0b3e
000001b0: 24d8 d7bd 5772 cbbd b25d 80bc 0cba 01be
000001c0: 8d4a d83b 8395 663d 1b65 743b da7c df3d
000001d0: 05a8 603d 7933 a1bd 5970 883d a957 7abd
000001e0: d474 f2bd d9b9 6dbe bc98 bf3d 8d5d 133e
000001f0: 5465 0abc 0fb5 c0bc f229 a7bc 5f45 47be
00000200: 94c9 a9bd da4f c33d 0dfd 233d 4774 ffbc
00000210: 1a52 1c3e 4404 5cbc 98cd 393e 5f08 733d
00000220: ad03 543d 1573 393e 32d9 87bd c77b 273e
00000230: 7698 bc3b d043 1abe 5300 0bbe 16ed 27be
00000240: 5135 17be 63b2 803d d7cf bb3d 222c 9ebc
00000250: e046 9b3c dc91 f13d 9df3 923c ff79 263e
00000260: 1139 6ebd 9171 9b3c e2be 85bd b7d6 9bbd
00000270: f4b3 093e 6163 283d b88f 18be 0963 97bd
00000280: 6d1a 15bc 96b9 163c 815e 913d e623 33bd
00000290: 333d fabc bf23 debd bc78 a63d 5c50 18bc
000002a0: 63f7 e33c a618 903d 4c5c 6e3c 5787 6fbd
000002b0: e6b1 10be f06b 34be aec8 2dbe dac3 8f3d
000002c0: 43d9 bb3c 42a6 fabd 478a 2fbd f3aa 663b
000002d0: 17ae a53d f0ea 56bd 4c6a 0ebd decd bebd
000002e0: f37b 97bc 18db c4bd de6e d93d f90f 793b
000002f0: 2d46 0bbe 3781 0cbe bdac eb3d 8f23 34bd
00000300: 4f25 1c3e c660 a53d f687 58be 7c44 7c3d
00000310: a7b7 e5bc 3536 69bd 3987 213d 9cad 993d
00000320: e0d3 183e a11b b83d 369a b93d 6556 f4bc
00000330: 4a60 11bb 9f66 a93d abe1 cfbc fdc0 a93d
00000340: 0b22 a73d f9f0 db3d 01dd d038 8335 c4bc
00000350: c0f6 92bd df87 b23c 1a61 68bd b166 413d
00000360: 1484 22bd e052 20bd b981 a83c df05 153d
00000370: 124a 64bd 0c0c 2fbd eb32 fdbd 6668 94bd
00000380: 89f6 913c 5217 d53d d90d 343d 554e c03c
00000390: b4d6 e63d df12 ddbd cd03 96bd 4e43 4bbd
000003a0: 79ef 81bd 0a81 a0bc 10b0 bd3d 2869 2fbc
000003b0: 5d90 643d e7df 86bd 5708 073d 9bdd 48bd
000003c0: 740d 39bd 9d93 e23d 04a5 31bd c606 0ebd
000003d0: 777d 2e3d 9fc3 aa3d 7240 e53c c26d 4d3d
000003e0: dcb9 e33d 08b3 b4bc afd0 393d e0a1 8abc
000003f0: 272c eebd 2213 8cbd d76e 4abd c4e9 f1ba
-0.030013401 -0.10257762 -0.16848455 -0.012219236 -0.07592622 -0.040192414 0.1524956 0.120488524
0.028058546 -0.060158476 -0.12472635 0.16063416 -0.01776326 0.0430614 -0.14729178 -0.16532381
0.013397562 0.14274342 0.11549994 -0.03801015 0.09416682 0.08930525 0.046445653 -0.042078696
-0.012074117 -0.027733728 -0.022811241 0.045513343 0.027900906 0.007220696 -0.06727537 0.12532271
0.1860992 0.01568672 0.09408108 0.1973771 0.07235103 -0.04157226 0.027076231 -0.12646347
-0.10451058 -0.07862399 -0.10840246 0.10566008 -0.05106243 0.07719756 0.057288945 -0.14764118
-0.0810999 -0.03031246 0.06063021 0.04648808 0.12190743 -0.07811718 0.16434307 -0.09169494
-0.026536077 -0.14934723 -0.0060118404 -0.04600374 -0.003810259 0.1316475 0.007404261 -0.154962
-0.055440325 0.07628878 -0.06554749 0.08065731 0.079536244 -0.15077533 0.11175722 -0.01951626
-0.006913812 0.0009697405 -0.06950726 -0.08102747 -0.12799259 -0.098214775 -0.04435767 -0.04472345
0.019649178 0.049538728 0.073960036 -0.07112544 0.03958906 -0.04334094 -0.14964558 -0.054129466
0.14276452 0.07526834 0.05970708 -0.04039437 0.0045712003 0.13886029 -0.14513041 0.096692726
0.14720902 -0.032697972 0.046069123 0.20951359 0.024685586 -0.055857345 0.03678444 -0.15173975
0.06276361 0.083694346 -0.025161562 0.13663143 -0.105392724 -0.09933918 -0.015669677 -0.12668628
0.006600684 0.05629493 0.003729171 0.109124854 0.054847736 -0.07871146 0.066620536 -0.061118755
-0.118386894 -0.23215427 0.09355304 0.14391156 -0.00844701 -0.023523835 -0.020405743 -0.19460057
-0.08290401 0.09536715 0.04003625 -0.031183375 0.15265694 -0.013428751 0.18144834 0.059334155
0.051761318 0.18110307 -0.066332236 0.16355811 0.0057554794 -0.15064931 -0.13574342 -0.16399035
-0.14766432 0.062840246 0.09170502 -0.019308154 0.018954694 0.117953986 0.01793843 0.16257475
-0.05815989 0.018975051 -0.06530549 -0.07609313 0.13447553 0.0411104 -0.14898574 -0.07391936
-0.009100539 0.009199521 0.07098103 -0.043735407 -0.03054676 -0.10846662 0.08128497 -0.009296503
0.027827924 0.07035951 0.0145483725 -0.05847868 -0.14130363 -0.176193 -0.16971084 0.070197776
0.022930747 -0.122387424 -0.04285648 0.0035197109 0.08089846 -0.052470148 -0.03476934 -0.0931661
-0.01849172 -0.09612101 0.10616849 0.0038003905 -0.13600989 -0.13721167 0.115075566 -0.043979224
0.15248607 0.08075099 -0.21145615 0.06158875 -0.028041674 -0.05693646 0.0394356 0.075038165
0.14924574 0.08989645 0.090626165 -0.029826352 -0.0022182637 0.082715265 -0.025376162 0.08288763
0.0816079 0.10739321 9.959378e-05 -0.023951298 -0.0717597 0.021793304 -0.05673323 0.047217075
-0.03967674 -0.039141536 0.02056967 0.036382552 -0.0557347 -0.0427361 -0.123632275 -0.07246475
0.017817752 0.104048386 0.04395852 0.023474852 0.1127142 -0.10794615 -0.07324944 -0.049624734
-0.06344504 -0.01959278 0.09262097 -0.010706224 0.055801738 -0.06585675 0.032966938 -0.049039464
-0.045178846 0.11063311 -0.04337026 -0.03467443 0.04260012 0.08338093 0.027984831 0.0501535
0.11119434 -0.022058025 0.04536503 -0.016922891 -0.11629515 -0.06839587 -0.04942211 -0.0018456508

lstm_layer.bias_ih_l0 f4 [256]
00000000: 3a9c 973d 2ff6 433e 2993 253c bc0e 3b3a
00000010: 50d7 89bc 44ac b0bb b066 8a3d 89e1 0cbd
00000020: 0138 d3bd 021b 96bd 40e4 85bd 5572 d9bd
00000030: eb07 ae3d f557 f83d 2636 a1bc e1a5 183e
00000040: 364d 56bd 3785 6a3b b5e5 c53a 94a5 e43d
00000050: 7477 153e e080 803d a72c bb3d 3009 20bb
00000060: b3b8 333e d171 8c3d 60c3 bc3d 8500 043d
00000070: 7572 bb3d ab54 5fbd b4f8 d03d 5497 dabc
00000080: ea49 db3c 18f7 99bd bd3a ff3d 8ccb b33c
00000090: 6f1a d33c bf10 35bc 9024 f93b 1944 12bc
000000a0: 8a8c e33d f93b a4bc 1c5d bf3d fe7a 54bd
000000b0: d0af 043e 008d 093d 764d 9cbd e1d6 5e3d
000000c0: ffd0 823d 73e7 fb3c 0e04 ee3d 8271 81bd
000000d0: 6805 203d aae7 9f3d a684 703b 6d9a 283d
000000e0: abf3 5f3d 0383 c2bc c42a 95bd 1eda 93bd
000000f0: 370a 053d adb0 8d3d 7aa9 183d 3c43 a83d
00000100: 4f22 053e 06e8 e8bc 560d 35bd 34f7 6fbd
00000110: 5f4a 10bd 6574 f7bd 5071 5c3d cedf 32bd
00000120: bec9 cabc 361c e03d 88c8 d43d fd5b 2f3d
00000130: d3bb 1dbd 6c22 443b 3792 1dbc 3ab7 953d
00000140: d7f7 12bd 9607 8e3c 045d c33d 6c6c 8e3d
00000150: 0899 723d 8495 5ebd e144 c53a 7b8d b63d
00000160: 01d2 43bd de5e 653d 5566 e5ba c898 41bb
00000170: 5fb7 f0bc b477 afbc 2b77 d13c 30aa 263e
00000180: b1f8 d3bd ce37 983d 4fec 4ebb 616b d03d
00000190: 87b2 1e3e da0b d63d d6d2 cebc ed94 5dbb
000001a0: accd b5bd afac cbbd 6195 c23c b0c1 083d
000001b0: 186f f3bc 87dd b0bd 1dfd 0abe 5133 43bd
000001c0: 81bf 32bd 3e04 95bc 2713 e43c 3fed ad3d
000001d0: f91e e0bd 41ad ba3d 133c 863d 6f19 db3d
000001e0: 5c9a dabd 1b78 ab3d 318f 5abd cd1b f1bd
000001f0: a1dc 6bbd f883 c03c 971d ffbc 0f01 83bc
00000200: d79a 8f3d f047 aebd 84eb d3bd e0d1 5dbc
00000210: cdf4 573d 0e2d 873c bc8b acbd e29f 393c
00000220: b6aa 0f3d 9b09 433d 519a 3abd 1bad 253d
00000230: 0d7f ed3d 3963 d73b 61c5 d1bd 14ca 96bd
00000240: efb6 04bd c6a8 c73d b804 ce3d aa7d a9bd
00000250: 32a5 753d 682e c53d 3216 88bd b73d 303d
00000260: 086f 553d 878c e33d 9d62 463d cd2d 9cbd
00000270: a2d3 ed3d 1200 7a3d 531d 3b3d ecd7 ec3d
00000280: 9bdb 523d abf5 31bd 65c3 023d fa6f 653d
00000290: 974d 943d 54ee 95bd 6faa f0bb 865e 153d
000002a0: 1a4c d9bd deb8 053d 2fea 47bd 26bc 67bd
000002b0: 8e1c b5bc da8c 55bb 6cb7 913d 0f85 29bd
000002c0: 6955 e13d a835 fa3c b9c3 9bbd 0cee 333d
000002d0: d1bf 44bd 0373 b63c fb14 6b3d 9b4d 01be
000002e0: 7705 5a3d 64a4 80bd ecfc 803d 94ba 98bd
000002f0: 6951 13bd fef0 9ebd 1866 643d 982b debd
00000300: 89ad 713c 1ccc 873d 81d4 9d3d d5f9 b53c
00000310: 543d 063d d7ad 653d 8c55 283d 3e3d 133d
00000320: 8189 ec3b d162 54bd 5009 d53a 537f 6bbd
00000330: 2bb2 cbbd d309 1bbc 9592 4c3d 079b 7d3d
00000340: 7ec6 633b ea11 98bc 8f06 25bd 96b4 f53d
00000350: 5033 353e 6c04 27bd 867a 43bb c109 3c3e
00000360: 3bc3 0f3e d9b8 563d bc32 3b3c bbb2 9ebd
00000370: e7cb cbbd 9b54 2abc f3f5 653c 81b4 8c3c
00000380: c7dc ffbd 1fbb f63d ac02 cc3d eced 96bd
00000390: 9c99 8bbc c3f3 90bb 8c0d b73d e5f8 59bd
000003a0: 2f0f 1d3e 3326 4cbd b95d e33d 1387 003c
000003b0: 6bf1 b3bd b6d6 7f3e 2716 b03d 7b70 1c3b
000003c0: 5eb4 2e3e 14c8 d63c 0106 b63d cb62 163e
000003d0: 831d 853c 890b 103e 1ca6 203b 722b 83bd
000003e0: 6690 2a3d 945c b3bd d60c f83b 34b6 02bd
000003f0: 56f4 853d 47a9 0d3e 2217 01bc a6ee f9bc
0.07402845 0.1913688 0.0101058865 0.00071356795 -0.016826302 -0.0053916294 0.06757867 -0.034394775
-0.10313416 -0.0732937 -0.06537676 -0.1061751 0.08497604 0.121261515 -0.01967914 0.14907028
-0.052319728 0.0035784969 0.0015098365 0.11164394 0.14596349 0.06274581 0.09139376 -0.0024419539
0.17550926 0.06857646 0.09216952 0.032227058 0.0915269 -0.054524105 0.10203686 -0.026683487
0.026768643 -0.075178325 0.12462375 0.021947645 0.02576944 -0.011051356 0.0076032355 -0.008927369
0.1111079 -0.020048128 0.09343931 -0.051875107 0.12957692 0.033581734 -0.07631962 0.054404143
0.06387519 0.030750012 0.11621867 -0.06320478 0.039067656 0.07807858 0.0036700158 0.041162897
0.05467574 -0.023744112 -0.072835475 -0.07219337 0.032480445 0.06918464 0.037271 0.08215949
0.13001369 -0.02843095 -0.04420217 -0.05858536 -0.035227176 -0.12082747 0.053819 -0.043670468
-0.024754401 0.10942881 0.10389811 0.042812336 -0.0385092 0.0029927744 -0.00961738 0.07310338
-0.03588089 0.017337602 0.09539226 0.069542736 0.059227973 -0.054341808 0.0015050435 0.08913704
-0.047807697 0.055998676 -0.0017501811 -0.0029540528 -0.029384313 -0.021419384 0.025569519 0.16275859
-0.103501685 0.07432519 -0.0031573956 0.10176731 0.1549779 0.10451479 -0.025247019 -0.003381069
-0.088771194 -0.09945046 0.02375287 0.03338784 -0.02971606 -0.08636003 -0.13573118 -0.04765636
-0.043639664 -0.0181905 0.027841164 0.08492517 -0.109434076 0.09115077 0.06554427 0.106982104
-0.10673973 0.08372518 -0.053359214 -0.11772881 -0.057583455 0.023500428 -0.03114204 -0.015991716
0.07011955 -0.08509815 -0.103476554 -0.013538808 0.052723695 0.016500976 -0.0842509 0.011329623
0.035074912 0.047616582 -0.045557324 0.04044829 0.11596499 0.0065731076 -0.10242725 -0.07362762
-0.03240102 0.09748988 0.10059494 -0.08275922 0.059971996 0.09627992 -0.066448584 0.043027606
0.05210784 0.11110788 0.04843389 -0.07625923 0.116126314 0.061035223 0.045682263 0.11564621
0.051478963 -0.043447178 0.031924624 0.056014992 0.072413616 -0.07320848 -0.007344536 0.036467098
-0.10610218 0.032647006 -0.04880732 -0.056575917 -0.022108342 -0.0032585175 0.07115063 -0.04138666
0.11002619 0.030543163 -0.076056905 0.04392819 -0.048034493 0.022271639 0.057393055 -0.1262726
0.053227868 -0.06281355 0.06298241 -0.07457462 -0.03596631 -0.07760809 0.055761427 -0.108481586
0.014750847 0.06630728 0.077065475 0.022213856 0.03277333 0.05607399 0.04109721 0.035947077
0.00721854 -0.05185205 0.0016253386 -0.057494473 -0.09946092 -0.0094627915 0.04994448 0.061915424
0.0034755762 -0.01856323 -0.040289458 0.11997335 0.17695355 -0.0407757 -0.0029827668 0.18363096
0.14039318 0.05242238 0.01142567 -0.07748934 -0.09951001 -0.010396148 0.01403569 0.017175915
-0.12493282 0.12047409 0.09961447 -0.07369599 -0.01704102 -0.00442359 0.08938131 -0.05321588
0.15337823 -0.049841117 0.111018606 0.007844704 -0.08786281 0.2498425 0.08597975 0.0023870755
0.17060992 0.026218452 0.08887864 0.14686124 0.016249424 0.140669 0.0024513071 -0.06404771
0.041641615 -0.08757892 0.0075698895 -0.031912044 0.06540744 0.13834105 -0.00787905 -0.030509304

lstm_layer.bias_hh_l0 f4 [256]
00000000: 772c de3a 4f21 4f3d 0b7f a33d 47c1 1b3e
00000010: a55c ea3d 0cda 043c ddc2 16be aa80 ce3c
00000020: 15ad dbbd 7fac f93c 77b3 61bd ede3 ac3d
00000030: e44e 9b3d e288 843c b2d6 873d 1aac 82bd
00000040: a89b 1f3d 4ae4 0d3e 97c9 de3d 9968 b43d
00000050: d19f 8f3d 39db f9bc dc1f ebbc 1106 a03d
00000060: 2a4c 793b 2de3 cb3d 1b43 543d 1a08 b13d
00000070: e295 a0bd f8c7 65bc acc4 003e 613b a83d
00000080: e84b f2bd e273 33bc 6ed1 2d3e a1ea 403d
00000090: 698c 7a3d 26dd c03d 5646 173d 99bc 51bd
000000a0: febb f7bc 3277 543d 8eb9 d8bc 566b 48bd
000000b0: e3bf c8bd c78d 1c3e cb26 3a3c 15e1 8cbc
000000c0: 4894 ca3b ef1a 4d3a 28b4 1f3d 7356 bf3b
000000d0: 96ef 013e f858 93bd 8e42 393d 2c3e eabb
000000e0: e838 ac3d 12bb eb3d 0218 05bd 02a8 c3bd
000000f0: 2bcd 2f3e f60b a03d 8d4e 003e b452 e13c
00000100: f37e 66bd 6ce8 973d e0f9 dabd 87be 1ebd
00000110: 7417 0a3e 2a85 523d 2e4c 0bbe 133f 793d
00000120: bdfe c23d cd4d 433d aea4 ed3d d3fe 863d
00000130: 8504 71bc d822 8b3d 4979 7b3d 2c48 ea3d
00000140: a105 ccbd 0e53 8f3c b2e8 00be e8cd debd
00000150: b9cf 033e 01bf 77bd bc63 963d 4027 103e
00000160: 88cb 823d 1175 263d eea3 f9ba 2cc2 853d
00000170: 6e5c c7bc d3c7 82bd 2f80 b83b 75cd 8fbd
00000180: 9833 46bd 7b5a 2cbb bb03 883d b323 96bd
00000190: 6d27 9c3c 6d76 023e c795 143d 967c b0bd
000001a0: 0b42 8f3c b245 c9bd 57cc d6bd b7ae ad3d
000001b0: b223 b9bd 3d87 52bd 8c4b aabd cc24 b33d
000001c0: 7ccd 1f3e 07a6 ce3d 33f1 063e fcbf 65bd
000001d0: 52af f83d 8d08 b63d eb52 19bd ffc3 9bbd
000001e0: 77bc 4cbc b491 373d f805 8dbd 63d8 b53b
000001f0: 4298 79bd bf66 0a3e 5822 78bd 878e aa3d
00000200: 1d8b 863d 22e0 3f3c 05ba 32bd aaa3 a1bd
00000210: 1bab 50bd 4f64 70bd 46bc db3d 18e4 bc3a
00000220: b34d b43d cf3b 7c3d 17ea 01be 5ee1 79bd
00000230: 5ab7 68bd 9e7d 91bc def8 e33c 6805 593d
00000240: ed07 92bd ae11 bf3c 608a 623d 4612 af3d
00000250: 31b0 40bd 92a1 f8bd 4db0 20bd 0db2 1fbd
00000260: 44a8 bc3d 47ac 093e 4b6b d63b 3bab dfbd
00000270: 4079 7b3d 4d69 ab3c 9565 f7bd c60b a3bd
00000280: 3e17 0bbd 91b2 9c3d 3d2c eebd 5a48 853d
00000290: ec6e d0bc 6946 5abd a6e9 9bbd c6cc b3bd
000002a0: 5e23 cfbd 1f4f 9ebd e78a 3cbd a78e 323d
000002b0: 3fe5 48bb 4563 82bd 99ea 1cbd 4dd9 bfbd
000002c0: bf5d c0bd 515b 1bbd 6b78 8fbd 227a 803c
000002d0: 7348 dc3d f8d1 90bd 4c33 7c3d 95e9 56bb
000002e0: 7089 57bd 796c cfbd 528a 083d dae9 e53c
000002f0: 247c fcba 6f70 743d 004a 4c3d 83ed 4abd
00000300: d030 06bd 48ca 64bb 1055 cc3d 4429 e53d
00000310: 28a9 ec3d 3999 1c3d 644d febd cdfc 363d
00000320: fbb4 c0bc 8242 843d d536 103b 9f72 fc3c
00000330: acab 043d 97ca b43d 04bf 5e3b acbb 673c
00000340: dc2f 363d 46c0 ec3b f5e6 13bd e876 89bc
00000350: 23db 263e c3af 6ebd 0bdc a53c 5f2a 0e3e
00000360: 59bf 953d 6784 4a3c 87ca 0b3d d95e 80bd
00000370: 813a fcbd 6041 29bc e3a4 d63d c1c9 373e
00000380: 2697 703c 6120 5e3c 3c03 e23d 2c9a 47bd
00000390: 1393 773c 3837 b9bd 0da5 7dbd b756 f0bc
000003a0: b263 153e b04f e93d de2a 793c 29c8 083e
000003b0: 6969 10bd d521 3f3e eb7f eb3c 68c1 32bd
000003c0: d595 533d 2b7f 873d c9a2 58bd 547e e23d
000003d0: 4fea 4cbd 07ce 0d3e cc20 ea3d feed 823d
000003e0: 49a4 ab3d 1ef2 ad3d f397 b23d 4cfb 643d
000003f0: 99c7 fb3d 9930 433e cbce 9b3c a1c1 8e3c
0.0016950507 0.050568875 0.07983216 0.15210448 0.11443452 0.008108627 -0.14722772 0.025207836
-0.10726372 0.03047776 -0.05510279 0.08441911 0.075834066 0.016178552 0.06632747 -0.06380482
0.038966805 0.13856617 0.10878294 0.08809013 0.070129044 -0.030500041 -0.028701715 0.07813657
0.0038039782 0.0995544 0.05182181 0.086441234 -0.07841088 -0.014024727 0.12575024 0.08214451
-0.11830884 -0.010952922 0.16974422 0.04709876 0.06116906 0.09417181 0.036932312 -0.05120525
-0.030241009 0.051871486 -0.026455667 -0.04893049 -0.098022245 0.15288459 0.011361788 -0.017197171
0.0061822273 0.0007824143 0.03899017 0.005839163 0.12689051 -0.07194704 0.045229487 -0.0071485247
0.084092915 0.1151029 -0.0324936 -0.09553529 0.17168109 0.07814781 0.12529965 0.027505256
-0.056273412 0.07417378 -0.10692191 -0.03875592 0.13485509 0.051396526 -0.13603279 0.060851168
0.09521244 0.04768162 0.11603676 0.065915726 -0.01471055 0.06793755 0.061394963 0.11439547
-0.09962011 0.017495658 -0.12588766 -0.10879117 0.12872209 -0.06048489 0.073432416 0.14077473
0.06386477 0.040638987 -0.0019046047 0.06531176 -0.024336066 -0.0638577 0.005630515 -0.0702161
-0.048389047 -0.0026299048 0.066413365 -0.07331028 0.019061768 0.12740488 0.03627565 -0.08617513
0.017487546 -0.098277465 -0.104881935 0.0848059 -0.090400115 -0.051398505 -0.08315191 0.08747253
0.1560573 0.10090261 0.13177948 -0.056091294 0.12142815 0.0888835 -0.037432592 -0.07605743
-0.012496105 0.044816688 -0.06885904 0.005549477 -0.06093622 0.13515757 -0.060579628 0.08327966
0.065695025 0.011711152 -0.043634433 -0.078925446 -0.05094443 -0.05868941 0.1072927 0.0014411239
0.088038824 0.061580475 -0.12686954 -0.061005943 -0.056815483 -0.017760094 0.02782863 0.05298367
-0.07130418 0.02332386 0.055307746 0.08548407 -0.04704303 -0.12140192 -0.039230634 -0.03898816
0.092117816 0.13444625 0.006543552 -0.109213315 0.06139493 0.020924235 -0.12079922 -0.0796123
-0.033957712 0.07651246 -0.116295315 0.065079406 -0.025443517 -0.053289805 -0.07612924 -0.08779292
-0.10114168 -0.07729935 -0.046030905 0.043593075 -0.003065422 -0.063665904 -0.038309667 -0.09367619
-0.09392881 -0.037928883 -0.0700539 0.015683237 0.10756006 -0.07071298 0.061572358 -0.0032793034
-0.052621305 -0.101281114 0.033335038 0.02806561 -0.0019263071 0.059677538 0.04987526 -0.049542915
-0.032761395 -0.0034910608 0.09977162 0.111895114 0.115557015 0.038232062 -0.12417105 0.044674683
-0.023523798 0.06457998 0.0022005339 0.030816374 0.03239028 0.088277034 0.0033988366 0.014143866
0.044479236 0.007225069 -0.03610893 -0.016780332 0.16294532 -0.05827309 0.020246526 0.13883351
0.07311887 0.012360669 0.034128692 -0.06268091 -0.12315846 -0.010330528 0.104806684 0.17948057
0.014684474 0.013557524 0.11035773 -0.048731014 0.015110749 -0.09043735 -0.061924983 -0.029338224
0.14588812 0.11392152 0.015207974 0.13357605 -0.035256777 0.1866525 0.02874752 -0.043641478
0.051656563 0.06616052 -0.05288962 0.110592514 -0.05002814 0.13848124 0.11432037 0.0639305
0.08380944 0.08493446 0.08720388 0.055903718 0.122939296 0.19061507 0.019019505 0.017426314

fc.weight f4 [1, 65]
00000000: b5bf 1ebf 1c7c c83f 7db7 383f 0693 b9be
00000010: 02f8 2dbe 136b 5cbf acc8 8bbe 61a5 483f
00000020: e875 22bf 6ed8 a2bf df1c bdbf 1b7d a33f
00000030: d6fc 21bf d85b dc3f af05 67be f75b d23f
00000040: e96a a2bf bfac 123f 4306 19bf bea2 1340
00000050: 39ab 9d3e 0679 a63e afbd edbf 8625 ae3f
00000060: db9c b1be ba52 2e40 103b 85bd 3b94 1cbf
00000070: de8b 923e c669 c8bd b2a9 31be ffb8 d03f
00000080: ca0f a83e 869a 31bf 7438 79bf 03ed 58bf
00000090: 25d0 b0bf 21ac 59bf d2d0 163f 2984 88bf
000000a0: 8a33 e3be 16d9 9ebf f607 2c3e 165b 6fbf
000000b0: ca87 06be b381 8f3f e2fb ca3d 2a84 f6bd
000000c0: 2c88 3cbf 238d 2fbf 6b16 0cc0 92a3 10bf
000000d0: d2d7 c6bd 57c0 7b3f 8f2c 993f 3801 fd3f
000000e0: 7915 813e acd3 973f 3380 e4be 8e3c c4be
000000f0: 88da 593f 77c7 77bf 7525 9fbf f563 9b3e
00000100: c219 d73e
-0.6201127 1.5662875 0.7215498 -0.36244982 -0.16989139 -0.8610088 -0.27301538 0.7837735
-0.6346116 -1.2722299 -1.4774436 1.2772554 -0.6327642 1.7215528 -0.22560762 1.6434315
-1.2688876 0.5729484 -0.5977518 2.306808 0.30794695 0.3251421 -1.8573512 1.3605201
-0.34689984 2.7237992 -0.06505406 -0.6116368 0.28622335 -0.097858 -0.1734989 1.6306456
0.32824546 -0.6937641 -0.97351766 -0.8473665 -1.3813521 -0.8502827 0.58912385 -1.0665332
-0.4437526 -1.2409999 0.16799912 -0.9349836 -0.13137737 1.1211456 0.09911324 -0.12036927
-0.7364528 -0.6857473 -2.1888683 -0.5649959 -0.09709133 0.9834036 1.1966723 1.9765997
0.25211695 1.1861472 -0.44629058 -0.3832745 0.8509908 -0.96788734 -1.2433306 0.303497
0.4201184

fc_final.weight f4 [1, 128]
00000000: c372 5fbe 9420 253e e314 29be ff63 2d3e
00000010: ef93 8d3e 7d0c 62bd 70e0 18bd 9894 e8bd
00000020: 5295 dbbc 089e 9cbd 84d4 ec3d e3b9 9d3d
00000030: 1720 e9bd 5840 84be d94d 193e 4aa1 f4bd
00000040: da2a a33d e0a0 10be de5d 78bd 5dca 1c3e
00000050: a20b 283e f20f 093e 6d47 8dbe c160 6c3e
00000060: 07b8 373e c85b 2cbe e4a8 78be b33b 923d
00000070: 2856 d4bd 993e 09be 185e 333e 6c8e 20be
00000080: aa83 da3d 104a 01be 60c9 183e 37df fa3d
00000090: 6e99 59be 4eac 1b3e 2c47 09be fb41 10be
000000a0: b282 b23d 4f17 1b3e 1c8a a6bd a40c 16be
000000b0: 2e64 f0bd b373 5abe 0abf 483d 1eb3 cfbd
000000c0: 58f3 90be 2a7f 95be 1d87 1d3e 68ad 39be
000000d0: 5781 fdbd 9a55 213e 40bc ef3d a2a3 193e
000000e0: acd5 4a3e 19e1 07be a889 cb3d b3bb 9e3d
000000f0: e00d 53be 2c0b 64be 0f9e 46be 10d7 22be
00000100: 2cc7 893c 656c 73bc cced 3fbd a006 8dbc
00000110: dcd9 8cbd bbba 9d3d b525 f83c 507e d43d
00000120: 5bac 77bd b14d 353d 7be8 8e3d faa5 74bd
00000130: 33c0 b5bd 5b69 8abd 74cd acbd 936e 3cbd
00000140: 9344 a2bd a6bb b23d 41db f53d 9367 d23c
00000150: 96b4 123e 5d1e 963d 500a 91bc fd63 f63b
00000160: 8066 073e 8be6 aa3d e65a c1bc fc4f 453d
00000170: 94ea 77bd 1979 c73d 0232 5f3d 984d a0bd
00000180: 7000 3c3d 6585 6c3d 80ff 5ebd 60c7 423d
00000190: d932 4ebd 6eac f5bd b20f 7dbc 77a3 d4bd
000001a0: c6b7 613c acc3 d2bd eb2b 813d 5230 fc3c
000001b0: e2a5 de3d d35a da3b cb55 b23d 98c2 49bd
000001c0: 11dc 5cbd f622 b53d 3b66 ac3d d71e 2cbe
000001d0: bd80 1e3e f755 11bd ff7d 413d b616 debc
000001e0: 112b 1c3d a28e c9bd 9093 59bd 41db a33c
000001f0: b76c 0fbb 3915 1fbc b684 b4bd 3e2d 343c
-0.21821122 0.16125709 -0.16511874 0.16932677 0.27651927 -0.05518769 -0.037323415 -0.11356467
-0.0268046 -0.076473296 0.11563972 0.07701471 -0.11383074 -0.2583034 0.14971103 -0.11944826
0.07967158 -0.14123869 -0.060636394 0.1531157 0.16410688 0.13384989 -0.27593556 0.23083784
0.17941295 -0.16831887 -0.24283177 0.07140293 -0.103679955 -0.13402785 0.17516363 -0.1567933
0.10669644 -0.12625909 0.14920568 0.12249606 -0.21249935 0.15202448 -0.13406056 -0.1408767
0.087163344 0.1514561 -0.08131811 -0.1465326 -0.11737858 -0.21333198 0.049010314 -0.10141586
-0.28310657 -0.2919858 0.15383573 -0.18132555 -0.12378185 0.1575531 0.11705828 0.15003827
0.19808072 -0.13269462 0.09938365 0.077506445 -0.20610762 -0.22269887 -0.19396232 -0.15902352
0.016818605 -0.014857386 -0.04685764 -0.017215073 -0.06877491 0.07701632 0.030291418 0.10375655
-0.060467105 0.044263545 0.06977936 -0.0597286 -0.0887455 -0.06758376 -0.084376246 -0.04600389
-0.07923236 0.08727197 0.1200471 0.025684154 0.143267 0.0733001 -0.017705113 0.0075192438
0.13222694 0.08344754 -0.023602914 0.048171982 -0.060526446 0.097398944 0.05449105 -0.078273
0.045898855 0.057744402 -0.054442883 0.04755342 -0.05034146 -0.11995779 -0.015445637 -0.10382741
0.013776725 -0.10291228 0.06307205 0.03078476 0.108714834 0.006663659 0.0870777 -0.049257845
-0.05392081 0.08844559 0.084179364 -0.1680864 0.15478797 -0.035482373 0.0472393 -0.027110439
0.03812701 -0.09841658 -0.053119242 0.02000201 -0.0021884867 -0.00970965 -0.08814375 0.010997115
