darnn3++/finished/encoder.pth (torch_old, 152107 bytes, 5 tensors)

lstm_layer.weight_ih_l0 f4 [256, 81]
-0.008295182 -0.20486471 -0.014118457 -0.027917707 -0.100527644 -0.006058965 -0.06949514 0.07157393
0.088826105 -0.031155264 -0.06859513 -0.07630975 -0.032289453 -0.046682246 -0.050191645 0.021436064
0.031508934 -0.024262397 0.052046716 -0.059362415 -0.002576149 0.13495925 0.07374308 -0.0969412
0.06003263 -0.07568819 0.07155583 0.03393253 0.09360556 -0.06659663 -0.13891579 -0.115480624
0.0012483167 -0.13953853 -0.051607225 -0.027287405 0.103844635 -0.1212612 -0.13870214 -0.0319151
-0.004325073 0.108896114 0.095136054 0.076241456 -0.13823901 0.05794421 0.02889919 0.017014707
0.042538974 0.0785689 -0.03532011 -0.09932068 -0.01976973 -0.08530889 -0.03051744 0.046747796
0.08871847 -0.1254773 -0.0117096845 -0.08387105 -0.036924727 -0.037684906 0.052737273 -0.1829014
-0.13213913 0.022678012 -0.08574809 -0.0151743395 -0.029248973 0.013310083 -0.056966834 0.007593669
-0.064760715 -0.10044842 0.12380811 -0.15002556 0.040981855 0.06587809 -0.14101033 -0.035372194
0.13065924 -0.02839523 0.16407779 0.12615581 0.08140326 0.07094829 -0.023543818 -0.096000016
0.15199295 -0.05078967 0.08395169 0.12256657 0.15429382 -0.015274164 -0.08440454 -0.04090477
0.12057887 0.122276746 0.17603475 -0.02637584 0.12487386 0.06392072 0.08436334 0.117145956
0.04805786 0.03953591 0.09373149 -0.05743213 0.07325769 0.12839334 0.11457663 0.05280508
-0.034228504 -0.10562826 0.27279305 0.14713548 0.12858588 0.1326179 0.24053486 0.0037492898
0.028622268 0.13261996 0.15422782 -0.010216997 0.14896369 -0.07472625 0.0033836453 0.18624775
0.18062139 0.20650019 0.1041359 0.010535435 0.099388115 -0.07201833 0.009811128 0.09492139
0.12617604 0.14423366 0.12490216 0.013563756 0.20310028 0.115733884 -0.046928898 -0.020963559
0.2069251 0.12504528 -0.07990537 0.14643325 0.13986547 0.106889986 -0.01723074 -0.060793485
0.14915933 -0.029686162 0.015292125 -0.0734515 0.059119035 0.044397514 0.105406985 0.13854624
0.10012644 0.20234485 -0.17255336 -0.028372297 0.12611358 0.11118731 0.123097055 0.12207032
-0.07721434 -0.09230922 0.0045885923 -0.026420193 0.0010391087 -0.039797865 -0.08809922 0.08942427
-0.19319695 -0.062717125 0.15068197 -0.020742077 0.0721104 -0.13184713 0.019861795 -0.114829555
-0.010379809 0.06015809 0.024934223 0.07673847 0.15670724 0.10744522 0.048756234 0.13601118
0.026662838 -0.043333292 -0.09480122 0.020044906 -0.06299494 -0.02218205 0.05021836 -0.2093943
-0.107055 -0.07747706 0.058374617 0.083278514 0.0018369535 -0.22984856 -0.09105502 -0.12598528
0.11475722 0.22533822 -0.17689693 0.027189914 0.0893992 -0.15805952 0.05695042 -0.0063594715
-0.11183979 -0.059215177 -0.053054575 0.0008638525 0.0776753 -0.038387608 0.108849 -0.03882783
0.028534345 -0.08791359 0.02136072 0.012394758 -0.020307116 0.11501592 -0.18666613 0.16581386
-0.028301034 0.0882508 0.009754562 0.12906224 0.119754694 -0.17259832 0.09361879 0.053309187
-0.064907715 -0.05331705 -0.012593697 -0.007082382 0.32676718 0.13411996 0.15876722 -0.028361736
-0.08639263 0.0033803093 -0.013396581 -0.030206777 0.067336604 0.13051893 -0.020478116 0.105267316
00000000: 84e8 07bc 0ec8 51be 1a51 67bc adb3 e4bc
00000010: 70e1 cdbd 488a c6bb 7853 8ebd 5a95 923d
00000020: 76ea b53d 5339 ffbc 9b7b 8cbd 4948 9cbd
00000030: f241 04bd e235 3fbd c195 4dbd af9a af3c
00000040: 830f 013d efc1 c6bc f02e 553d 0126 73bd
00000050: 9cd4 28bb c232 0a3e 9d06 973d 1c89 c6bd
00000060: c6e4 753d 6902 9bbd dd8b 923d d6fc 0a3d
00000070: 46b4 bf3d d063 88bd f13f 0ebe 1b81 ecbd
00000080: 8f9e a33a 30e3 0ebe 1962 53bd d689 dfbc
00000090: 7fac d43d cb57 f8bd ef07 0ebe 68b9 02bd
000000a0: 58b9 8dbb ed04 df3d b1d6 c23d 7b24 9c3d
000000b0: 878e 0dbe e856 6d3d febd ec3c 6d62 8b3c
000000c0: 593d 2e3d bbe8 a03d d2ab 10bd a468 cbbd
000000d0: 21f4 a1bc 6db6 aebd b6ff f9bc 9e7a 3f3d
000000e0: 07b2 b53d 1f7d 00be fad9 3fbc 96c4 abbd
000000f0: 623e 17bd 7d5b 1abd 0a03 583d 814a 3bbe
00000100: 7b4f 07be 3dc7 b93c b29c afbd cb9d 78bc
00000110: 8b9b efbc 8912 5a3c 0e56 69bd 50d4 f83b
00000120: 44a1 84bd e7b7 cdbd 1b8f fd3d 4da0 19be
00000130: 97dc 273d 18eb 863d 0365 10be 6fe2 10bd
00000140: 89cb 053e 1d9d e8bc 0204 283e fd2e 013e
00000150: c1b6 a63d 564d 913d f7de c0bc a89b c4bd
00000160: 0aa4 1b3e d408 50bd ddee ab3d 2f04 fb3d
00000170: 33ff 1d3e 7d40 7abc 4adc acbd c38b 27bd
00000180: 0ef2 f63d 3b6c fa3d 7442 343e 2512 d8bc
00000190: debd ff3d dee8 823d b0c6 ac3d 38ea ef3d
000001a0: 52d8 443d 68f0 213d 4cf6 bf3d f43d 6bbd
000001b0: 2108 963d 8b79 033e 27a7 ea3d 244a 583d
000001c0: 3033 0cbd a153 d8bd 88ab 8b3e afaa 163e
000001d0: 04ac 033e fdcc 073e c54e 763e a5b6 753b
000001e0: 3f79 ea3c 87cd 073e e6ed 1d3e 3165 27bc
000001f0: f089 183e 130a 99bd 26c0 5d3b bbb7 3e3e
00000200: d0f4 383e c974 533e 3445 d53d d19c 2c3c
00000210: ff8b cb3d 597e 93bd dabe 203c 2566 c23d
00000220: 4b34 013e fdb1 133e b4cc ff3d 843a 5e3c
00000230: 85f9 4f3e e305 ed3d 8438 40bd c5bb abbc
00000240: 2ce4 533e df0b 003e 6da5 a3bd 99f2 153e
00000250: e538 0f3e 23e9 da3d 7b27 8dbc 9702 79bd
00000260: 39bd 183e 6530 f3bc d28b 7a3c bd6d 96bd
00000270: cd26 723d 2bda 353d 9edf d73d 11df 0d3e
00000280: 170f cd3d 7d33 4f3e d4b1 30be 056d e8bc
00000290: eb23 013e 2cb6 e33d 4f1a fc3d 0100 fa3d
000002a0: 8d22 9ebd 9e0c bdbd e75b 963b 296f d8bc
000002b0: b432 883a 1603 23bd 5d6d b4bd 1224 b73d
000002c0: 6cd5 45be d671 80bd 604c 1a3e 4aeb a9bc
000002d0: 9eae 933d ef02 07be 34b5 a23c c22b ebbd
000002e0: 1310 2abc 5468 763d db42 cc3c 0f29 9d3d
000002f0: dd77 203e 3d0c dc3d 9eb4 473d 8446 0b3e
00000300: 066c da3c 407e 31bd 2427 c2bd 3735 a43c
00000310: 7e03 81bd 21b7 b5bc c4b1 4d3d 766b 56be
00000320: a73f dbbd 4bac 9ebd 391a 6f3d ed8d aa3d
00000330: eec5 f03a 6c5d 6bbe 0e7b babd 4902 01be
00000340: d505 eb3d 10bf 663e 7824 35be 62bd de3c
00000350: ee16 b73d 5bda 21be d844 693d 1d63 d0bb
00000360: 430c e5bd 9d8b 72bd c14f 59bd 2974 623a
00000370: 3a14 9f3d 533c 1dbd 39ec de3d ee09 1fbd
00000380: dcc0 e93c 0a0c b4bd adfc ae3c 6213 4b3c
00000390: 1c5b a6bc 778d eb3d 6825 3fbe 1ccb 293e
000003a0: 92d7 e7bc d6bc b43d 99d1 1f3c e428 043e
000003b0: f341 f53d 9dbd 30be 35bb bf3d bc5a 5a3d
000003c0: 56ee 84bd fb62 5abd cb55 4ebc 5413 e8bb
000003d0: 074e a73e be56 093e e093 223e df56 e8bc
000003e0: 9fee b0bd 2e88 5d3b 557d 5bbc 3474 f7bc
000003f0: c6e7 893d c1a6 053e b9c1 a7bc 6496 d73d

lstm_layer.weight_hh_l0 f4 [256, 64]
-0.08760886 -0.004722524 -0.08427334 0.0053242976 -0.019915225 -0.09471432 0.0032952356 0.019737793
-0.011123129 0.04163847 -0.083358616 -0.09807385 -0.030242892 0.03527038 0.07177957 0.053174846
-0.08204613 0.09730358 -0.087271005 -0.12644349 0.027593233 -0.019522509 0.03702713 0.07826438
-0.07592876 0.14295866 -0.048041042 -0.026658604 0.014696731 -0.10887623 0.0041261017 0.09655492
-0.026758606 0.121349975 0.014343079 0.030982962 -0.0128434785 -0.031536143 0.122013204 -0.0060164873
-0.07231486 0.038221147 0.006282098 -0.11284847 -0.06909784 0.04113616 0.10178069 0.020770464
0.09351005 -0.047458265 -0.098140836 0.08262345 -0.05704278 0.03667614 -0.07005364 0.13652235
-0.09013437 0.1063504 -0.00915691 0.09808348 0.044353936 -0.07972364 -0.018749325 -0.004324843
-0.10413628 0.046381857 -0.12543994 0.051265318 0.03482329 0.00998505 0.05334901 0.009092692
-0.09996787 -0.07266388 0.0072064614 0.04222559 0.02175112 -0.11324326 0.075372554 -0.033980012
0.065072864 0.03720367 -0.043478765 -0.083547994 0.09790095 0.033023387 -0.07604767 -0.16632293
0.097135805 -0.11578272 0.105641 0.12377831 -0.06358441 -0.055183697 0.03285332 -0.031372894
-0.032876525 0.13073045 -0.08845246 -0.09466615 0.014970643 0.0051891943 0.04688951 0.112949684
0.0009067973 0.061989993 0.013199395 0.02176233 -0.030488808 -0.07426059 -0.002905919 -0.07950661
-0.008020515 -0.03724909 0.04996398 -0.015073645 -0.01834537 -0.027441127 -0.11398885 -0.08387478
-0.02152525 0.014015494 -0.03549152 0.0053434796 -0.06862317 -0.09148388 0.033781625 0.1149502
0.02931715 0.022186503 -0.08332512 0.07063137 -0.12386578 -0.051410448 0.08101141 -0.061703004
0.071748555 -0.018257523 -0.021929285 0.015038053 0.034388535 -0.0047814962 -0.081253186 -0.03714143
0.004743535 -0.029410604 -0.07155433 0.05056469 -0.11334659 -0.047436524 -0.019825732 -0.14902814
-0.042879246 0.05139741 0.05057518 -0.099020176 -0.0843966 -0.0319243 0.010122135 -0.073663525
-0.10523969 -0.0145476675 -0.058797568 -0.06396783 0.008200803 0.06260773 0.0666245 0.006404815
-0.1322697 -0.064916864 -0.016411196 -0.01544074 -0.047078896 0.039369673 -0.16733989 0.007383982
-0.097055845 0.029641997 0.035556816 -0.03452455 0.0063382084 0.02180959 -0.011514297 0.02639021
-0.04952612 -0.116409354 -0.05480267 -0.014492656 -0.10238343 -0.14687385 0.061892834 0.005138047
-0.12353051 0.0071392437 -0.061511517 -0.012068139 0.0592152 0.06453881 -0.005139356 0.041378096
0.0911017 0.048735928 -0.10845875 0.08867532 -0.0064573037 -0.12737963 -0.01852112 0.10395073
0.06954133 0.106653385 -0.03434676 0.07529948 0.036784474 -0.09404156 0.04758411 -0.17613012
0.00041940872 -0.00768351 -0.024277199 -0.062224086 0.0076823244 -0.06832512 0.026151478 -0.14894944
-0.012174355 0.1252154 -0.052261513 -0.024737798 -0.05874573 0.098866925 0.08759216 0.0046493523
-0.007920782 0.15241216 0.014177865 -0.008831395 -0.1322556 0.05514381 -0.13727936 -0.059906684
-0.00901063 -0.095325656 -0.07304891 0.13569881 -0.13731061 -0.024091586 -0.028646886 0.056385394
0.06859917 -0.12809391 -0.047635164 -0.11446378 0.083141066 0.118535556 0.090776 -0.06839856
00000000: 466c b3bd 67bf 9abb 8097 acbd 7277 ae3b
00000010: 4125 a3bc 95f9 c1bd e1f4 573b 27b1 a13c
00000020: c93d 36bc 1a8d 2a3d ecb7 aabd f1da c8bd
00000030: f1bf f7bc ad77 103d 2b01 933d decd 593d
00000040: cd07 a8bd 1947 c73d 24bb b2bd 677a 01be
00000050: 340b e23c abed 9fbc c3a9 173d 1349 a03d
00000060: 8a80 9bbd c163 123e afc6 44bd 2563 dabc
00000070: 8fca 703c 80fa debd 4034 873b 96be c53d
00000080: dd34 dbbc 5686 f83d 3cff 6a3c fbcf fd3c
00000090: 746d 52bc 0b2c 01bd 0fe2 f93d f425 c5bb
000000a0: d019 94bd c78d 1c3d 0fda cd3b 191d e7bd
000000b0: 2b83 8dbd 647e 283d 6572 d03d d226 aa3c
000000c0: 3282 bf3d 9963 42bd 10fe c8bd 7c36 a93d
000000d0: b1a5 69bd b839 163d 4878 8fbd 84cc 0b3e
000000e0: 5e98 b8bd 3dce d93d dd06 16bc fedf c83d
000000f0: 79ac 353d 2646 a3bd 2f98 99bc 6ab7 8dbb
00000100: 6745 d5bd e7fa 3d3d 5473 00be 95fb 513d
00000110: dea2 0e3d 5698 233c 7e84 5a3d 84f9 143c
00000120: f4bb ccbd cdd0 94bd 2e24 ec3b bef4 2c3d
00000130: 682f b23c 15ec e7bd ed5c 9a3d a02e 0bbd
00000140: ec44 853d e062 183d ca16 32bd 361b abbd
00000150: 4b80 c83d 8843 073d e1be 9bbd 8f50 2abe
00000160: 23ef c63d 7e1f edbd 4f5a d83d 7c7f fd3d
00000170: 8b38 82bd 4d08 62bd 3491 063d dd80 00bd
00000180: 89a9 06bd 34de 053e 9026 b5bd 54e0 c1bd
00000190: 6e47 753c 1e0a aa3b 370f 403d 2a52 e73d
000001a0: 23b6 6d3a 38e9 7d3d 4642 583c ea46 b23c
000001b0: aac3 f9bc f015 98bd 3b71 3ebb 5dd4 a2bd
000001c0: 7a68 03bc 8092 18bd 08a7 4c3d 73f7 76bc
000001d0: 0849 96bc 37cc e0bc fc72 e9bd 8ac6 abbd
000001e0: b955 b0bc 3ea1 653c 8e5f 11bd 5b18 af3b
000001f0: 4e8a 8cbd e75b bbbd 9a5e 0a3d 036b eb3d
00000200: 852a f03c 78c0 b53c 5ca6 aabd 2ea7 903d
00000210: 58ad fdbd c393 52bd 4fe9 a53d 4abc 7cbd
00000220: e8f0 923d cd90 95bc 0ba5 b3bc 2a62 763c
00000230: feda 0c3d 19ae 9cbb 1268 a6bd 9d21 18bd
00000240: a86f 9b3b 82ee f0bc 148b 92bd ec1c 4f3d
00000250: 4222 e8bd cd4c 42bd 9369 a2bc d59a 18be
00000260: 26a2 2fbd 1786 523d ec27 4f3d 17cb cabd
00000270: 20d8 acbd 0ec3 02bd 50d7 253c e7dc 96bd
00000280: e887 d7bd 5759 6ebc b8d5 70bd 9101 83bd
00000290: a95c 063c 7b38 803d 6d72 883d 7bdf d13b
000002a0: b571 07be 22f3 84bd c670 86bc 28fb 7cbc
000002b0: cdd5 40bd 1842 213d 265b 2bbe 55f5 f13b
000002c0: 37c5 c6bd c6d3 f23c 06a4 113d 9d69 0dbd
000002d0: bfb0 cf3b 06aa b23c 76a6 3cbc 4830 d83c
000002e0: e7db 4abd 0768 eebd c478 60bd 9b72 6dbc
000002f0: 67ae d1bd 1966 16be 5783 7d3d 105d a83b
00000300: 90fd fcbd 51f0 e93b 80f3 7bbd 72b9 45bc
00000310: a38b 723d ec2c 843d 0b68 a8bb 147c 293d
00000320: 8793 ba3d 539f 473d 9f1f debd 689b b53d
00000330: ca97 d3bb ce6f 02be 9bb9 97bc 1fe4 d43d
00000340: af6b 8e3d 176d da3d 30af 0cbd 9d36 9a3d
00000350: 51ab 163d dd98 c0bd 8ee7 423d 745b 34be
00000360: 16e4 db39 f4c5 fbbb fae0 c6bc afde 7ebd
00000370: 02bc fb3b 0aee 8bbd a03b d63c 3486 18be
00000380: f276 47bc 7738 003e 2b10 56bd eca6 cabc
00000390: 5d9f 70bd be7a ca3d 8563 b33d 9859 983b
000003a0: 2bc6 01bc ef11 1c3e 474a 683c 8eb1 10bc
000003b0: 036e 07be 7ade 613d f692 0cbe b660 75bd
000003c0: 52a1 13bc 193a c3bd ab9a 95bd a1f4 0a3e
000003d0: 279b 0cbe b85b c5bc e0ac eabc 5ff4 663d
000003e0: b97d 8c3d 0d2b 03be 171d 43bd fc6b eabd
000003f0: dd45 aa3d c5c2 f23d c4e8 b93d 8b14 8cbd

lstm_layer.bias_ih_l0 f4 [256]
-0.08285434 -0.068085946 -0.016605476 0.03157793 0.008282125 0.092022486 0.028519675 0.15772444
-0.03156774 -0.054414123 0.039449994 0.061027415 -0.015897753 -0.042368125 0.0693092 0.12127035
0.072310515 0.01690363 0.032197166 0.01256101 0.03630193 -0.065972485 0.009899193 0.074483864
0.2589492 0.014049378 -0.1105573 -0.12956779 -0.10095062 0.018836938 -0.12935399 -0.03237125
-0.10406905 -0.054101303 0.0092585 0.023627894 -0.091918185 -0.020531919 0.07458612 0.00092368637
0.102487996 -0.10726512 -0.13385203 -0.006958954 0.03652563 0.11699885 0.10348228 0.10006396
0.037386622 0.08575564 -0.10363902 0.1324978 -0.027587326 -0.112461545 0.11653914 0.020434666
-0.014155409 -0.10415194 0.0017213627 0.11585442 0.16167815 -0.060067892 -0.055804532 0.017223166
-0.10328198 -0.029873444 -0.10792653 -0.103536054 0.055768713 -0.079304755 0.074654706 0.03354655
-0.035926692 -0.070712484 0.0048776716 0.036554337 0.037647597 0.002567636 0.10925307 -0.08522108
0.0048660873 -5.152188e-05 0.06624576 0.06354105 -0.043627467 0.0858256 -0.028471217 -0.06855442
0.5343798 -0.13881965 0.030001111 -0.057292126 0.017937122 -0.029476084 -0.12865952 -0.08603448
-0.09524946 -0.09719708 0.08962394 -0.090529926 0.034075014 0.03149899 -0.0072963554 -0.11950342
-0.05387881 0.05499319 0.021969693 -0.09550332 0.106085025 -0.06115915 0.04152251 0.00539854
-0.015833324 0.06056162 0.008412781 -0.013830912 0.106692426 0.04356931 0.110351615 0.09511415
-0.031292934 -0.09833182 0.12889077 0.055262316 -0.07465288 -0.12827834 -0.004916839 0.005540396
0.009544863 0.0803794 -0.04272984 -0.104479 -0.016304696 0.04498986 0.0649637 0.10443697
-0.030978486 -0.000741909 0.05139695 -0.08281003 0.097130366 0.09570185 0.10995587 -0.05183547
0.038808808 -0.0493968 -0.034554675 0.011979908 0.0752911 -0.12129181 -0.009653527 -0.065327816
-0.04888607 -0.09614466 -0.0863278 0.08272742 -0.084833115 0.11102662 0.01666343 0.0013466352
-0.029032908 0.11798156 -0.0043157074 0.059547227 -0.065415464 -0.036277752 0.049494002 -0.0973254
0.061653372 -0.010213676 -0.029447693 0.10340575 0.0743637 0.006532082 -0.0024043713 0.053990208
-0.0844984 -0.06927602 -0.081236996 0.025729073 0.065567866 -0.04917269 -0.085063845 0.054802302
-0.06671127 -0.05606305 0.045644965 -0.0030330415 0.04338857 -0.036298595 0.082861245 -0.06322592
-0.03576162 -0.020252546 -0.07057219 -0.13491595 0.036017496 -0.025426947 -0.12847368 0.18067093
0.06438709 0.0034228386 -0.1350575 0.040341347 -0.0424468 0.08537115 -0.061632704 -0.10363695
-0.006352327 -0.0012757194 0.08627747 0.05448861 0.08764399 0.032430846 -0.12571973 -0.00035382583
0.21645053 -0.017745571 0.07933064 -0.16318062 0.02658942 0.13188364 -0.14292596 0.076510035
-0.05327261 0.12650067 -0.017152874 -0.062322315 -0.024352329 -0.08174118 -0.07251608 0.03236407
-0.10963176 0.12919433 -0.020060029 -0.074700445 -0.08949486 -0.006921823 -0.06722236 0.107014306
0.008417602 0.028944168 0.019781446 0.06458077 -0.115986064 -0.013835755 0.08745111 0.0880842
0.11223987 0.021397265 0.0018193475 -0.1256441 0.15077533 0.05733384 0.11493619 0.17909248
00000000: 89af a9bd a570 8bbd 3508 88bc dc57 013d
00000010: c0b1 073c 4976 bc3d 18a2 e93c 8482 213e
00000020: 2d4d 01bd 58e1 5ebd 5196 213d e2f7 793d
00000030: 013c 82bc 338a 2dbd fbf1 8d3d 975c f83d
00000040: 8917 943d 7b79 8a3c 2de1 033d b2cc 4d3c
00000050: 55b1 143d 951c 87bd 3a30 223c ff8a 983d
00000060: fd94 843e 5d2f 663c de6b e2bd 6bad 04be
00000070: 33bf cebd ec4f 9a3c 5f75 04be b797 04bd
00000080: 2722 d5bd 5499 5dbd f7b0 173c 498f c13c
00000090: 9a3f bcbd 8e32 a8bc 9cc0 983d 8b23 723a
000000a0: 3ae5 d13d d1ad dbbd 8210 09be f007 e4bb
000000b0: e69b 153d 189d ef3d 85ee d33d 55ee cc3d
000000c0: b722 193d a7a0 af3d b240 d4bd 81ad 073e
000000d0: d1fe e1bc 3d52 e6bd 13ac ee3d 9a66 a73c
000000e0: 17ec 67bc 9d4d d5bd 599f e13a 1545 ed3d
000000f0: f58e 253e c009 76bd 4b93 64bd 9917 8d3c
00000100: 8185 d3bd 27b9 f4bc 9608 ddbd b60a d4bd
00000110: bc6d 643d 886a a2bd 91e4 983d 1b68 093d
00000120: de27 13bd b5d1 90bd e0d4 9f3b 00ba 153d
00000130: 5e34 1a3d c945 283b 13c0 df3d 6488 aebd
00000140: b373 9f3b 3319 58b8 dbab 873d cf21 823d
00000150: b7b2 32bd 55c5 af3d 783c e9bc 4266 8cbd
00000160: 1dcd 083f bd26 0ebe e4c4 f53c 26ab 6abd
00000170: dff0 923c d477 f1bc 52bf 03be d832 b0bd
00000180: 2612 c3bd 430f c7bd c28c b73d c167 b9bd
00000190: 3e92 0b3d 1605 013d 4416 efbb 36be f4bd
000001a0: 07b0 5cbd 8a40 613d c9f9 b33c 3f97 c3bd
000001b0: 1b43 d93d 0482 7abd 8213 2a3d 3ce6 b03b
000001c0: e3b4 81bc 760f 783d c3d5 093c 0d9b 62bc
000001d0: 8f81 da3d bc75 323d 0700 e23d 35cb c23d
000001e0: 052d 00bd 3162 c9bd f1fb 033e bd5a 623d
000001f0: 9ce3 98bd 665b 03be 6f1d a1bb 368c b53b
00000200: 0f62 1c3c f49d a43d 7c05 2fbd 16f9 d5bd
00000210: 6d91 85bc 4a47 383d b00b 853d 0de3 d53d
00000220: 98c6 fdbc ac7c 42ba 9c85 523d 4e98 a9bd
00000230: 49ec c63d 55ff c33d 8b30 e13d 6e51 54bd
00000240: fcf5 1e3d 4d54 4abd 3489 0dbd 6047 443c
00000250: 3832 9a3d d767 f8bd d429 1ebc 97ca 85bd
00000260: c23c 48bd 7ee7 c4bd a1cc b0bd fe6c a93d
00000270: fcbc adbd ed61 e33d bf81 883c 9481 b03a
00000280: 6cd6 edbc 51a0 f13d c76a 8dbb cbe7 733d
00000290: 8bf8 85bd fb97 14bd 39ba 4a3d 8a52 c7bd
000002a0: 3f88 7c3d 4357 27bc 4a3c f1bc 65c6 d33d
000002b0: ff4b 983d 130b d63b a892 1dbb d624 5d3d
000002c0: 7f0d adbd 96e0 8dbd 955f a6bd c7c5 d23c
000002d0: 7248 863d 4d69 49bd f435 aebd 6178 603d
000002e0: eb9f 88bd 5ea2 65bd 37f6 3a3d fec5 46bb
000002f0: 37b8 313d d6ad 14bd 28b3 a93d 977c 81bd
00000300: c77a 12bd abe8 a5bc 2788 90bd 6827 0abe
00000310: 1587 133d 2c4c d0bc 9b8e 03be cd01 393e
00000320: 61dd 833d b451 603b 834c 0abe f83c 253d
00000330: b2dc 2dbd 12d7 ae3d 9372 7cbd 9c3f d4bd
00000340: 2e27 d0bb 0a36 a7ba 3eb2 b03d 732f 5f3d
00000350: b17e b33d 35d6 043d acbc 00be b381 b9b9
00000360: 35a5 5d3e 295f 91bc 1a78 a23d d218 27be
00000370: 0ed2 d93c 810c 073e 2f5b 12be 4bb1 9c3d
00000380: 6134 5abd 6489 013e 2f84 8cbc af45 7fbd
00000390: 897e c7bc eb67 a7bd 5083 94bd 3090 043d
000003a0: 9e86 e0bd 854b 043e ee54 a4bc 8cfc 98bd
000003b0: 1549 b7bd 76d0 e2bb e0ab 89bd 512a db3d
000003c0: fbe9 093c 521c ed3c b30c a23c ec42 843d
000003d0: 1a8a edbd 5daf 62bc 9119 b33d 7d65 b43d
000003e0: 04de e53d 5149 af3c 2c77 ee3a d9a8 00be
000003f0: d964 1a3e e3d6 6a3d aa63 eb3d 0564 373e

lstm_layer.bias_hh_l0 f4 [256]
-0.0016869183 -0.05998082 -0.026624775 0.071180135 0.047028963 -0.07731291 0.0711175 0.11345529
0.019660098 -0.040592182 -0.12937295 -0.13271886 -0.024755048 0.10857742 -0.06571072 -0.0013181088
-0.09387896 0.050597634 0.122465335 -0.046436273 -0.054861434 -0.030856626 -0.09238863 0.068129495
0.142577 0.09073153 0.08877437 -0.12885611 -0.057106107 0.14768471 0.05845922 0.005702969
-0.12569936 -0.005805498 -0.08288902 -0.11342637 0.09992243 -0.10487621 0.050494466 -0.017751107
-0.029174743 -0.05539193 0.060471065 -0.15223758 0.11397201 -0.02203751 0.123081505 0.034451988
-0.024267336 0.052090272 0.11038591 0.19416946 -0.031874258 0.074530624 0.013780219 0.032999687
-0.03793926 0.10731656 0.062486436 0.07087231 0.11532521 0.10237391 0.024531156 -0.023618752
0.024932025 -0.0314528 -0.027255446 -0.056656588 -0.11804557 0.04763675 0.06852811 -0.074886985
-0.12816238 0.094544776 -0.06455234 -0.062790275 -0.008639305 0.10432245 -0.034962554 0.08028045
0.024356976 0.099101946 0.17285237 0.09770158 0.08650551 0.02145812 0.09129392 0.011279461
0.50917566 0.019228999 -0.0027816228 0.0457709 0.077853985 0.13778925 -0.03583444 0.10380165
0.01942886 -0.026648207 0.10808807 0.08674837 -0.088814765 0.028742278 0.044670884 -0.08088959
0.07515055 -0.04849062 0.008679063 -0.13176206 -0.010126638 -0.10641176 0.015935771 0.07537697
-0.01689869 0.098367564 -0.051858153 -0.07612973 -0.051453076 -0.13093267 0.096206896 0.09743405
-0.014167751 0.047275133 -0.11327368 0.09783192 -0.06718794 -0.12483471 -0.11476601 0.1415565
0.102641754 -0.03515455 -0.016787108 -0.050411362 0.033903304 0.096532114 0.04881663 -0.07141215
-0.04844044 -0.022127187 0.07647962 -0.07504435 0.0846918 0.066260956 -0.09303985 0.09315949
0.07528483 -0.061830487 0.043974813 0.0057940357 -0.04639046 0.05082625 -0.05627397 0.046237923
-0.00582744 0.09008469 -0.051663343 0.003008383 0.05298454 -0.13395466 -0.059573457 0.06370393
-0.073879704 -0.11622879 -0.011323569 -0.112219244 -0.05329339 0.026054692 -0.009314017 0.11616956
0.033513017 0.030533994 0.07078279 -0.0090674935 -0.033485305 -0.11557739 0.054284163 -0.0005297581
-0.023568232 -0.030900745 -0.08807831 -0.020935077 -0.046160307 -0.09170286 -0.06630188 -0.019600574
-0.0042803576 0.026812628 0.08680706 0.047513496 -0.068478584 -0.07586153 0.010363327 -0.012666024
-0.04544109 -0.12649044 0.02911325 -0.051018167 -0.030788692 -0.07387153 0.015581505 0.20610894
0.03156147 -0.0064043314 0.08300994 -0.052191693 -0.03137449 -0.033072416 0.027513612 -0.08668074
0.11188169 0.048651837 0.050477885 0.10082806 0.15742241 -0.0564758 -0.016676582 0.025802758
0.30373412 0.021674953 0.06972325 -0.023112452 -0.032027356 0.14861612 -0.07562229 -0.048441026
0.05584467 0.097522005 0.027851468 -0.1068583 0.084210396 -0.10066087 0.09254007 0.08848341
-0.016599044 -0.036517486 -0.0106570255 -0.11388727 0.12761916 0.114010565 0.121678025 -0.07002071
0.07921295 -0.038837224 0.116285674 -0.010398785 0.058851987 -0.11617088 -0.08643327 -0.036631107
0.10441738 0.10821663 -0.07155827 -0.074076794 0.24136426 -0.12561136 -0.0021073397 0.118012674
00000000: 961b ddba 73ae 75bd 331c dabc e4c6 913d
00000010: 71a1 403d 3b56 9ebd 0da6 913d 3f5b e83d
00000020: 370e a13c fd43 26bd 587a 04be 74e7 07be
00000030: 19cb cabc d75d de3d 5893 86bd 64c4 acba
00000040: 9d43 c0bd 773f 4f3d 1bcf fa3d f633 3ebd
00000050: 62b6 60bd 09c7 fcbc 4036 bdbd 7a87 8b3d
00000060: b5ff 113e 74d1 b93d 56cf b53d dbf2 03be
00000070: 18e8 69bd a93a 173e ef72 6f3d f9df ba3b
00000080: 55b7 00be 0c3c bebb b8c1 a9bd 164c e8bd
00000090: 22a4 cc3d 57c9 d6bd 49d3 4e3d c56a 91bc
000000a0: dfff eebc a6e2 62bd 82b0 773d 2be4 1bbe
000000b0: 286a e93d 0288 b4bc 2812 fc3d 871d 0d3d
000000c0: 4bcc c6bc 9c5c 553d 0212 e23d 5cd4 463e
000000d0: 958e 02bd 83a3 983d 6dc6 613c ae2a 073d
000000e0: 3366 1bbd c9c8 db3d c7f1 7f3d 8025 913d
000000f0: a02f ec3d 6aa9 d13d 90f5 c83c 1d7c c1bc
00000100: 3f3e cc3c a7d4 00bd d046 dfbc bd10 68bd
00000110: e0c1 f1bd c11e 433d 7758 8c3d 595e 99bd
00000120: 003d 03be b1a0 c13d 0434 84bd 3098 80bd
00000130: df8b 0dbc 02a7 d53d e534 0fbd 146a a43d
00000140: 4888 c73c f6f5 ca3d 3600 313e c417 c83d
00000150: cd29 b13d f0c8 af3c 4ff8 ba3d 7dcd 383c
00000160: 5659 023f 2286 9d3c e34b 36bb 447a 3b3d
00000170: e971 9f3d a018 0d3e 22c7 12bd f695 d43d
00000180: 4629 9f3c 574d dabc 475d dd3d 21a9 b13d
00000190: 84e4 b5bd ed74 eb3c d1f8 363d 71a9 a5bd
000001a0: 88e8 993d 1a9e 46bd a132 0e3c a2ec 06be
000001b0: 33ea 25bc 69ee d9bd bc8b 823c 3e5f 9a3d
000001c0: 1f6f 8abc ef74 c93d 3769 54bd e7e9 9bbd
000001d0: 76c0 52bd 3713 06be 1f08 c53d 818b c73d
000001e0: db1f 68bc 92a3 413d 08fc e7bd 1a5c c83d
000001f0: d599 89bd 57a9 ffbd 710a ebbd 30f4 103e
00000200: d735 d23d 38fe 0fbd 1e85 89bc 257c 4ebd
00000210: 31de 0a3d a1b2 c53d f2f3 473d 8940 92bd
00000220: 7c69 46bd 1344 b5bc 59a1 9c3d dab0 99bd
00000230: e572 ad3d d3b3 873d ad8b bebd 67ca be3d
00000240: ef2e 9a3d f741 7dbd ef1e 343d e5db bd3b
00000250: ec03 3ebd 302f 503d 897f 66bd fa63 3d3d
00000260: 1cf4 bebb 527e b83d f19c 53bd 4b28 453b
00000270: 5106 593d 692b 09be 4c03 74bd 3577 823d
00000280: 3e4e 97bd 5c09 eebd 7e86 39bc 34d3 e5bd
00000290: 2b4a 5abd a670 d53c d299 18bc 4eea ed3d
000002a0: f244 093d 6d22 fa3c 91f6 903d d38f 14bc
000002b0: e327 09bd d7b3 ecbd 1259 5e3d 77df 0aba
000002c0: 2a12 c1bc 8f23 fdbc 6762 b4bd 0a80 abbc
000002d0: 9712 3dbd b6ce bbbd 48c9 87bd 6291 a0bc
000002e0: 3e42 8cbb 28a6 db3c e6c7 b13d 839d 423d
000002f0: 803e 8cbd 4a5d 9bbd f2ca 293c 2885 4fbc
00000300: 7020 3abd b686 01be e97e ee3c 6df8 50bd
00000310: 9138 fcbc f549 97bd 9249 7f3c 390e 533e
00000320: 9a46 013d 6ddb d1bb 1e01 aa3d f5c6 55bd
00000330: 8a82 00bd f176 07bd 3a64 e13c ac85 b1bd
00000340: 3a22 e53d 2647 473d e6c1 4e3d f17e ce3d
00000350: 5733 213e 2b53 67bd 549d 88bc 4e60 d33c
00000360: 0a83 9b3e ac8f b13c 10cb 8e3d 5356 bdbc
00000370: 1e2f 03bd d32e 183e dcdf 9abd 196a 46bd
00000380: 61bd 643d 9eb9 c73d c328 e43c 86d8 dabd
00000390: 8076 ac3d 4927 cebd a685 bd3d ca36 b53d
000003a0: b8fa 87bc 5c93 15bd ce9a 2ebc bb3d e9bd
000003b0: 99ae 023e 5f7e e93d 5432 f93d 0567 8fbd
000003c0: 663a a23d c813 1fbd 2f27 ee3d aa5f 2abc
000003d0: c80e 713d 00eb edbd ed03 b1bd 800a 16bd
000003e0: c8d8 d53d aea0 dd3d 248d 92bd 93b5 97bd
000003f0: 3128 773e 44a0 00be 4b1b 0abb a1b0 f13d

attn_linear.weight f4 [1, 137]
0.012125922 0.07267669 -0.057918217 0.030147217 -0.055705324 0.05279468 -0.024380997 -0.0599864
-0.023634434 0.007976572 -0.04300353 0.06346786 0.04285824 0.057694994 -0.0038171923 0.018571539
-0.053022448 -0.052561004 0.049651325 -0.011421687 -0.031827357 -0.07976399 -0.0753378 -0.004800938
-0.02040443 -0.005122188 -0.045406424 0.07248996 -0.01189821 0.08473911 -0.0051266844 -0.036039747
-0.022276392 0.024508016 0.003343852 -0.02663128 0.00825658 0.024020443 0.018442716 0.045475863
0.027613994 0.08306132 -0.058627542 0.06492598 -0.0135768205 -0.05352581 -0.085319586 0.058531385
0.008465073 0.0796858 0.07954942 -0.024916824 -0.053079594 0.020381644 0.07402391 0.038643442
0.009700851 -0.01978183 0.08320468 0.007672069 -0.065237515 0.03190423 -0.080579095 0.059033982
0.061046675 0.031468507 -0.008108309 0.033780254 0.03570588 0.05899398 -0.04864586 0.0734892
-0.04971949 -0.053327832 0.0061248015 -0.07859658 -0.018859114 0.068471886 0.052921426 -0.028569061
-0.012245355 0.012471674 -0.028049821 0.04212067 0.08318205 -0.012217477 -0.039644007 -0.0013288014
-0.05097911 -0.034876447 -0.054477155 0.045113385 -0.0731427 0.025359534 -0.051687725 -0.033503763
0.06632254 0.015540938 -0.0748007 -0.07685947 -0.07493501 -0.02542556 0.022840323 -0.031884838
-0.016343342 0.077379934 -0.0019803597 0.0058940398 0.042336185 -0.034018688 -0.05876568 -0.016733289
0.022598367 -0.045436993 0.07377263 0.056921035 -0.08306746 0.060193207 -0.054680057 -0.02987032
-0.07400767 0.06968655 -0.03696816 0.029659469 -0.02711675 -0.013297685 -0.06581886 0.043655757
0.051206015 -0.039883576 -0.07402766 0.064206 -0.032329317 -0.0016784851 0.021052571 -0.031682268
0.0026745943
00000000: ceab 463c 84d7 943d a73b 6dbd 4cf7 f63c
00000010: 442b 64bd 3c3f 583d a8ba c7bc 4db4 75bd
00000020: 009d c1bc 2bb0 023c 7824 30bd 70fb 813d
00000030: 1f8c 2f3d 9651 6c3d dc29 7abb 5723 983c
00000040: 112e 59bd 354a 57bd 305f 4b3d 0722 3bbc
00000050: 675d 02bd 4e5b a3bd b44a 9abd 3051 9dbb
00000060: 3127 a7bc 07d8 a7bb 16fc 39bd 9e75 943d
00000070: b6f0 42bc b38b ad3d bffd a7bb 6a9e 13bd
00000080: fb7c b6bc 09c5 c83c 8724 5b3b d829 dabc
00000090: 9b46 073c 85c6 c43c 2e15 973c e644 3a3d
000000a0: be36 e23c 0e1c aa3d 6f23 70bd eaf7 843d
000000b0: 5071 5ebc e13d 5bbd 09bc aebd 9bbe 6f3d
000000c0: 17b1 0a3c 4f32 a33d ceea a23d 5e1e ccbc
000000d0: fd69 59bd 68f7 a63c d999 973d 9648 1e3d
000000e0: 51f0 1e3c 810d a2bc 3767 aa3d fb65 fb3b
000000f0: 3f9b 85bd 03ae 023d a706 a5bd 9ecd 713d
00000100: 140c 7a3d 1fe5 003d b6d8 04bc 2a5d 0a3d
00000110: 5440 123d aca3 713d e240 47bd 8181 963d
00000120: aaa6 4bbd 496e 5abd 8fb2 c83b 3ef7 a0bd
00000130: 6e7e 9abc fd3a 8c3d 23c4 583d aa09 eabc
00000140: bea0 48bc fe55 4c3c bdc8 e5bc b986 2c3d
00000150: 5a5b aa3d d02b 48bc c161 22bd 2d2b aeba
00000160: 79cf 50bd 9bda 0ebd 7023 5fbd d0c8 383d
00000170: d7cb 95bd ccbe cf3c 82b6 53bd 3e3b 09bd
00000180: 1dd4 873d 6b9f 7e3c 1c31 99bd 7f68 9dbd
00000190: 8777 99bd 4449 d0bc a11b bb3c ad99 02bd
000001a0: 79e2 85bc 5f79 9e3d ecc8 01bb ca22 c13b
000001b0: b568 2d3d 2e57 0bbd 48b4 70bd 4014 89bc
000001c0: 3620 b93c 241c 3abd 1b16 973d 0826 693d
000001d0: 461f aabd 278d 763d 32f8 5fbd 9ab2 f4bc
000001e0: 5591 97bd d2b7 8e3d ed6b 17bd 6af8 f23c
000001f0: f223 debc 89de 59bc 0acc 86bd 61d0 323d
00000200: 66bd 513d f65c 23bd d09b 97bd 6f7e 833d
00000210: bf6b 04bd 9d00 dcba 7176 ac3c 44c5 01bd
00000220: 3f48 2f3b
